…
I0121 10:19:59.944648 30601 net.cpp:322] The NetState phase (0) differed from the phase (1) specified by a rule in layer accuracy
I0121 10:19:59.945107 30601 net.cpp:49] Initializing net from parameters: 
name: "PVA-Net"
state {
  phase: TRAIN
}
layer {
  name: "data"
  type: "Data"
  top: "data"
  top: "label"
  include {
    phase: TRAIN
  }
  transform_param {
    mirror: true
    crop_size: 224
    mean_value: 104
    mean_value: 117
    mean_value: 123
  }
  data_param {
    source: "data/imagenet/ilsvrc12_train_lmdb"
    batch_size: 28
    backend: LMDB
  }
}
layer {
  name: "conv1_1a"
  type: "Convolution"
  bottom: "data"
  top: "conv1_1a"
  param {
    lr_mult: 1
    decay_mult: 1
  }
  param {
    lr_mult: 2
    decay_mult: 0
  }
  convolution_param {
    num_output: 11
    weight_filler {
      type: "xavier"
      std: 0.1
    }
    bias_filler {
      type: "constant"
      value: 0.1
    }
    pad_h: 3
    pad_w: 0
    kernel_h: 7
    kernel_w: 1
    stride_h: 2
    stride_w: 1
  }
}
layer {
  name: "conv1_1b1"
  type: "Convolution"
  bottom: "conv1_1a"
  top: "conv1_1b1"
  param {
    lr_mult: 1
    decay_mult: 1
  }
  param {
    lr_mult: 2
    decay_mult: 0
  }
  convolution_param {
    num_output: 11
    weight_filler {
      type: "xavier"
      std: 0.1
    }
    bias_filler {
      type: "constant"
      value: 0.1
    }
    pad_h: 0
    pad_w: 3
    kernel_h: 1
    kernel_w: 7
    stride_h: 1
    stride_w: 2
  }
}
layer {
  name: "conv1_1b2"
  type: "Convolution"
  bottom: "conv1_1b1"
  top: "conv1_1b2"
  param {
    lr_mult: 1
    decay_mult: 1
  }
  param {
    lr_mult: 2
    decay_mult: 0
  }
  convolution_param {
    num_output: 64
    pad: 0
    kernel_size: 1
    stride: 1
    weight_filler {
      type: "xavier"
      std: 0.1
    }
    bias_filler {
      type: "constant"
      value: 0.1
    }
  }
}
layer {
  name: "relu1_1"
  type: "ReLU"
  bottom: "conv1_1b2"
  top: "conv1_1b2"
}
layer {
  name: "conv1_1_bn"
  type: "BatchNorm"
  bottom: "conv1_1b2"
  top: "conv1_1_bn"
}
layer {
  name: "pool1"
  type: "Pooling"
  bottom: "conv1_1_bn"
  top: "pool1_1"
  pooling_param {
    pool: MAX
    kernel_size: 3
    stride: 2
  }
}
layer {
  name: "conv2_1"
  type: "Convolution"
  bottom: "pool1_1"
  top: "conv2_1"
  param {
    lr_mult: 1
    decay_mult: 1
  }
  param {
    lr_mult: 2
    decay_mult: 0
  }
  convolution_param {
    num_output: 64
    pad: 0
    kernel_size: 1
    stride: 1
    weight_filler {
      type: "xavier"
      std: 0.1
    }
    bias_filler {
      type: "constant"
      value: 0.1
    }
  }
}
layer {
  name: "relu2_1"
  type: "ReLU"
  bottom: "conv2_1"
  top: "conv2_1"
}
layer {
  name: "conv2_1_bn"
  type: "BatchNorm"
  bottom: "conv2_1"
  top: "conv2_1_bn"
}
layer {
  name: "conv3_1a"
  type: "Convolution"
  bottom: "conv2_1_bn"
  top: "conv3_1a"
  param {
    lr_mult: 1
    decay_mult: 1
  }
  param {
    lr_mult: 2
    decay_mult: 0
  }
  convolution_param {
    num_output: 48
    weight_filler {
      type: "xavier"
    }
    bias_filler {
      type: "constant"
      value: 0.1
    }
    pad_h: 2
    pad_w: 0
    kernel_h: 5
    kernel_w: 1
    stride_h: 2
    stride_w: 1
  }
}
layer {
  name: "conv3_1b1"
  type: "Convolution"
  bottom: "conv3_1a"
  top: "conv3_1b1"
  param {
    lr_mult: 1
    decay_mult: 1
  }
  param {
    lr_mult: 2
    decay_mult: 0
  }
  convolution_param {
    num_output: 48
    weight_filler {
      type: "xavier"
    }
    bias_filler {
      type: "constant"
      value: 0.1
    }
    pad_h: 0
    pad_w: 2
    kernel_h: 1
    kernel_w: 5
    stride_h: 1
    stride_w: 2
  }
}
layer {
  name: "conv3_1b2"
  type: "Convolution"
  bottom: "conv3_1b1"
  top: "conv3_1b2"
  param {
    lr_mult: 1
    decay_mult: 1
  }
  param {
    lr_mult: 2
    decay_mult: 0
  }
  convolution_param {
    num_output: 96
    pad: 0
    kernel_size: 1
    stride: 1
    weight_filler {
      type: "xavier"
    }
    bias_filler {
      type: "constant"
      value: 0.1
    }
  }
}
layer {
  name: "relu3_1"
  type: "ReLU"
  bottom: "conv3_1b2"
  top: "conv3_1b2"
}
layer {
  name: "conv3_1_bn"
  type: "BatchNorm"
  bottom: "conv3_1b2"
  top: "conv3_1_bn"
}
layer {
  name: "conv3_2a"
  type: "Convolution"
  bottom: "conv3_1_bn"
  top: "conv3_2a"
  param {
    lr_mult: 1
    decay_mult: 1
  }
  param {
    lr_mult: 2
    decay_mult: 0
  }
  convolution_param {
    num_output: 64
    weight_filler {
      type: "xavier"
    }
    bias_filler {
      type: "constant"
      value: 0.1
    }
    pad_h: 1
    pad_w: 0
    kernel_h: 3
    kernel_w: 1
    stride_h: 1
    stride_w: 1
  }
}
layer {
  name: "conv3_2b1"
  type: "Convolution"
  bottom: "conv3_2a"
  top: "conv3_2b1"
  param {
    lr_mult: 1
    decay_mult: 1
  }
  param {
    lr_mult: 2
    decay_mult: 0
  }
  convolution_param {
    num_output: 64
    weight_filler {
      type: "xavier"
    }
    bias_filler {
      type: "constant"
      value: 0.1
    }
    pad_h: 0
    pad_w: 1
    kernel_h: 1
    kernel_w: 3
    stride_h: 1
    stride_w: 1
  }
}
layer {
  name: "conv3_2b2"
  type: "Convolution"
  bottom: "conv3_2b1"
  top: "conv3_2b2"
  param {
    lr_mult: 1
    decay_mult: 1
  }
  param {
    lr_mult: 2
    decay_mult: 0
  }
  convolution_param {
    num_output: 96
    pad: 0
    kernel_size: 1
    stride: 1
    weight_filler {
      type: "xavier"
    }
    bias_filler {
      type: "constant"
      value: 0.1
    }
  }
}
layer {
  name: "relu3_2"
  type: "ReLU"
  bottom: "conv3_2b2"
  top: "conv3_2b2"
}
layer {
  name: "conv3_2_bn"
  type: "BatchNorm"
  bottom: "conv3_2b2"
  top: "conv3_2_bn"
}
layer {
  name: "conv3_3a"
  type: "Convolution"
  bottom: "conv3_2_bn"
  top: "conv3_3a"
  param {
    lr_mult: 1
    decay_mult: 1
  }
  param {
    lr_mult: 2
    decay_mult: 0
  }
  convolution_param {
    num_output: 48
    weight_filler {
      type: "xavier"
    }
    bias_filler {
      type: "constant"
      value: 0.1
    }
    pad_h: 1
    pad_w: 0
    kernel_h: 3
    kernel_w: 1
    stride_h: 1
    stride_w: 1
  }
}
layer {
  name: "conv3_3b1"
  type: "Convolution"
  bottom: "conv3_3a"
  top: "conv3_3b1"
  param {
    lr_mult: 1
    decay_mult: 1
  }
  param {
    lr_mult: 2
    decay_mult: 0
  }
  convolution_param {
    num_output: 48
    weight_filler {
      type: "xavier"
    }
    bias_filler {
      type: "constant"
      value: 0.1
    }
    pad_h: 0
    pad_w: 1
    kernel_h: 1
    kernel_w: 3
    stride_h: 1
    stride_w: 1
  }
}
layer {
  name: "conv3_3b2"
  type: "Convolution"
  bottom: "conv3_3b1"
  top: "conv3_3b2"
  param {
    lr_mult: 1
    decay_mult: 1
  }
  param {
    lr_mult: 2
    decay_mult: 0
  }
  convolution_param {
    num_output: 96
    pad: 0
    kernel_size: 1
    stride: 1
    weight_filler {
      type: "xavier"
    }
    bias_filler {
      type: "constant"
      value: 0.1
    }
  }
}
layer {
  name: "relu3_3"
  type: "ReLU"
  bottom: "conv3_3b2"
  top: "conv3_3b2"
}
layer {
  name: "conv3_3_bn"
  type: "BatchNorm"
  bottom: "conv3_3b2"
  top: "conv3_3_bn"
}
layer {
  name: "conv3_4"
  type: "Convolution"
  bottom: "conv3_3_bn"
  top: "conv3_4"
  param {
    lr_mult: 1
    decay_mult: 1
  }
  param {
    lr_mult: 2
    decay_mult: 0
  }
  convolution_param {
    num_output: 144
    pad: 0
    kernel_size: 1
    stride: 1
    weight_filler {
      type: "xavier"
    }
    bias_filler {
      type: "constant"
      value: 0.1
    }
  }
}
layer {
  name: "relu3_4"
  type: "ReLU"
  bottom: "conv3_4"
  top: "conv3_4"
}
layer {
  name: "conv3_4_bn"
  type: "BatchNorm"
  bottom: "conv3_4"
  top: "conv3_4_bn"
}
layer {
  name: "pool3"
  type: "Pooling"
  bottom: "conv3_4_bn"
  top: "pool3"
  pooling_param {
    pool: MAX
    kernel_size: 2
    stride: 2
  }
}
layer {
  name: "conv4_1a"
  type: "Convolution"
  bottom: "pool3"
  top: "conv4_1a"
  param {
    lr_mult: 1
    decay_mult: 1
  }
  param {
    lr_mult: 2
    decay_mult: 0
  }
  convolution_param {
    num_output: 110
    weight_filler {
      type: "xavier"
    }
    bias_filler {
      type: "constant"
      value: 0.1
    }
    pad_h: 1
    pad_w: 0
    kernel_h: 3
    kernel_w: 1
    stride_h: 1
    stride_w: 1
  }
}
layer {
  name: "conv4_1b1"
  type: "Convolution"
  bottom: "conv4_1a"
  top: "conv4_1b1"
  param {
    lr_mult: 1
    decay_mult: 1
  }
  param {
    lr_mult: 2
    decay_mult: 0
  }
  convolution_param {
    num_output: 110
    weight_filler {
      type: "xavier"
    }
    bias_filler {
      type: "constant"
      value: 0.1
    }
    pad_h: 0
    pad_w: 1
    kernel_h: 1
    kernel_w: 3
    stride_h: 1
    stride_w: 1
  }
}
layer {
  name: "conv4_1b2"
  type: "Convolution"
  bottom: "conv4_1b1"
  top: "conv4_1b2"
  param {
    lr_mult: 1
    decay_mult: 1
  }
  param {
    lr_mult: 2
    decay_mult: 0
  }
  convolution_param {
    num_output: 144
    pad: 0
    kernel_size: 1
    stride: 1
    weight_filler {
      type: "xavier"
    }
    bias_filler {
      type: "constant"
      value: 0.1
    }
  }
}
layer {
  name: "relu4_1"
  type: "ReLU"
  bottom: "conv4_1b2"
  top: "conv4_1b2"
}
layer {
  name: "conv4_1_bn"
  type: "BatchNorm"
  bottom: "conv4_1b2"
  top: "conv4_1_bn"
}
layer {
  name: "conv4_2"
  type: "Convolution"
  bottom: "conv4_1_bn"
  top: "conv4_2"
  param {
    lr_mult: 1
    decay_mult: 1
  }
  param {
    lr_mult: 2
    decay_mult: 0
  }
  convolution_param {
    num_output: 144
    pad: 1
    kernel_size: 3
    stride: 1
    weight_filler {
      type: "xavier"
    }
    bias_filler {
      type: "constant"
      value: 0.1
    }
  }
}
layer {
  name: "relu4_2"
  type: "ReLU"
  bottom: "conv4_2"
  top: "conv4_2"
}
layer {
  name: "conv4_2_bn"
  type: "BatchNorm"
  bottom: "conv4_2"
  top: "conv4_2_bn"
}
layer {
  name: "conv4_3"
  type: "Convolution"
  bottom: "conv4_2_bn"
  top: "conv4_3"
  param {
    lr_mult: 1
    decay_mult: 1
  }
  param {
    lr_mult: 2
    decay_mult: 0
  }
  convolution_param {
    num_output: 144
    pad: 1
    kernel_size: 3
    stride: 1
    weight_filler {
      type: "xavier"
    }
    bias_filler {
      type: "constant"
      value: 0.1
    }
  }
}
layer {
  name: "relu4_3"
  type: "ReLU"
  bottom: "conv4_3"
  top: "conv4_3"
}
layer {
  name: "conv4_3_bn"
  type: "BatchNorm"
  bottom: "conv4_3"
  top: "conv4_3_bn"
}
layer {
  name: "conv5_1"
  type: "Convolution"
  bottom: "conv4_3_bn"
  top: "conv5_1"
  param {
    lr_mult: 1
    decay_mult: 1
  }
  param {
    lr_mult: 2
    decay_mult: 0
  }
  convolution_param {
    num_output: 256
    pad: 1
    kernel_size: 3
    stride: 1
    weight_filler {
      type: "xavier"
    }
    bias_filler {
      type: "constant"
      value: 0.1
    }
  }
}
layer {
  name: "relu5_1"
  type: "ReLU"
  bottom: "conv5_1"
  top: "conv5_1"
}
layer {
  name: "conv5_1_bn"
  type: "BatchNorm"
  bottom: "conv5_1"
  top: "conv5_1_bn"
}
layer {
  name: "pool5_1"
  type: "Pooling"
  bottom: "conv5_1_bn"
  top: "pool5_1"
  pooling_param {
    pool: MAX
    kernel_size: 2
    stride: 1
  }
}
layer {
  name: "conv5_2"
  type: "Convolution"
  bottom: "pool5_1"
  top: "conv5_2"
  param {
    lr_mult: 1
    decay_mult: 1
  }
  param {
    lr_mult: 2
    decay_mult: 0
  }
  convolution_param {
    num_output: 384
    pad: 0
    kernel_size: 1
    stride: 1
    weight_filler {
      type: "xavier"
    }
    bias_filler {
      type: "constant"
      value: 0.1
    }
  }
}
layer {
  name: "relu5_2"
  type: "ReLU"
  bottom: "conv5_2"
  top: "conv5_2"
}
layer {
  name: "conv5_2_bn"
  type: "BatchNorm"
  bottom: "conv5_2"
  top: "conv5_2_bn"
}
layer {
  name: "pool5_2"
  type: "Pooling"
  bottom: "conv5_2_bn"
  top: "pool5_2"
  pooling_param {
    pool: MAX
    kernel_size: 2
    stride: 1
  }
}
layer {
  name: "conv5_3"
  type: "Convolution"
  bottom: "pool5_2"
  top: "conv5_3"
  param {
    lr_mult: 1
    decay_mult: 1
  }
  param {
    lr_mult: 2
    decay_mult: 0
  }
  convolution_param {
    num_output: 512
    pad: 0
    kernel_size: 1
    stride: 1
    weight_filler {
      type: "xavier"
    }
    bias_filler {
      type: "constant"
      value: 0.1
    }
  }
}
layer {
  name: "relu5_3"
  type: "ReLU"
  bottom: "conv5_3"
  top: "conv5_3"
}
layer {
  name: "conv5_3_bn"
  type: "BatchNorm"
  bottom: "conv5_3"
  top: "conv5_3_bn"
}
layer {
  name: "pool5_3"
  type: "Pooling"
  bottom: "conv5_3_bn"
  top: "pool5_3"
  pooling_param {
    pool: MAX
    kernel_size: 2
    stride: 2
  }
}
layer {
  name: "fc6"
  type: "InnerProduct"
  bottom: "pool5_3"
  top: "fc6"
  param {
    lr_mult: 1
    decay_mult: 1
  }
  param {
    lr_mult: 2
    decay_mult: 0
  }
  inner_product_param {
    num_output: 2048
    weight_filler {
      type: "xavier"
      std: 0.1
    }
    bias_filler {
      type: "constant"
      value: 0.1
    }
  }
}
layer {
  name: "relu6"
  type: "ReLU"
  bottom: "fc6"
  top: "fc6"
}
layer {
  name: "fc6_bn"
  type: "BatchNorm"
  bottom: "fc6"
  top: "fc6_bn"
}
layer {
  name: "fc7"
  type: "InnerProduct"
  bottom: "fc6_bn"
  top: "fc7"
  param {
    lr_mult: 1
    decay_mult: 1
  }
  param {
    lr_mult: 2
    decay_mult: 0
  }
  inner_product_param {
    num_output: 2048
    weight_filler {
      type: "xavier"
      std: 0.1
    }
    bias_filler {
      type: "constant"
      value: 0.1
    }
  }
}
layer {
  name: "relu7"
  type: "ReLU"
  bottom: "fc7"
  top: "fc7"
}
layer {
  name: "fc7_bn"
  type: "BatchNorm"
  bottom: "fc7"
  top: "fc7_bn"
}
layer {
  name: "fc8"
  type: "InnerProduct"
  bottom: "fc7_bn"
  top: "fc8"
  param {
    lr_mult: 1
    decay_mult: 1
  }
  param {
    lr_mult: 2
    decay_mult: 0
  }
  inner_product_param {
    num_output: 1000
    weight_filler {
      type: "xavier"
      std: 0.1
    }
    bias_filler {
      type: "constant"
      value: 0.1
    }
  }
}
layer {
  name: "loss"
  type: "SoftmaxWithLoss"
  bottom: "fc8"
  bottom: "label"
  top: "loss"
}
I0121 10:19:59.945379 30601 layer_factory.hpp:77] Creating layer data
I0121 10:19:59.945755 30601 net.cpp:106] Creating Layer data
I0121 10:19:59.945771 30601 net.cpp:411] data -> data
I0121 10:19:59.945794 30601 net.cpp:411] data -> label
I0121 10:19:59.947266 30610 db_lmdb.cpp:38] Opened lmdb data/imagenet/ilsvrc12_train_lmdb
I0121 10:19:59.954401 30601 data_layer.cpp:41] output data size: 28,3,224,224
I0121 10:19:59.975625 30601 net.cpp:150] Setting up data
I0121 10:19:59.975675 30601 net.cpp:157] Top shape: 28 3 224 224 (4214784)
I0121 10:19:59.975682 30601 net.cpp:157] Top shape: 28 (28)
I0121 10:19:59.975697 30601 net.cpp:165] Memory required for data: 16859248
I0121 10:19:59.975718 30601 layer_factory.hpp:77] Creating layer conv1_1a
I0121 10:19:59.975740 30601 net.cpp:106] Creating Layer conv1_1a
I0121 10:19:59.975759 30601 net.cpp:454] conv1_1a <- data
I0121 10:19:59.975780 30601 net.cpp:411] conv1_1a -> conv1_1a
I0121 10:20:00.088753 30601 net.cpp:150] Setting up conv1_1a
I0121 10:20:00.088788 30601 net.cpp:157] Top shape: 28 11 112 224 (7727104)
I0121 10:20:00.088795 30601 net.cpp:165] Memory required for data: 47767664
I0121 10:20:00.088821 30601 layer_factory.hpp:77] Creating layer conv1_1b1
I0121 10:20:00.088850 30601 net.cpp:106] Creating Layer conv1_1b1
I0121 10:20:00.088855 30601 net.cpp:454] conv1_1b1 <- conv1_1a
I0121 10:20:00.088863 30601 net.cpp:411] conv1_1b1 -> conv1_1b1
I0121 10:20:00.090229 30601 net.cpp:150] Setting up conv1_1b1
I0121 10:20:00.090245 30601 net.cpp:157] Top shape: 28 11 112 112 (3863552)
I0121 10:20:00.090250 30601 net.cpp:165] Memory required for data: 63221872
I0121 10:20:00.090260 30601 layer_factory.hpp:77] Creating layer conv1_1b2
I0121 10:20:00.090282 30601 net.cpp:106] Creating Layer conv1_1b2
I0121 10:20:00.090297 30601 net.cpp:454] conv1_1b2 <- conv1_1b1
I0121 10:20:00.090314 30601 net.cpp:411] conv1_1b2 -> conv1_1b2
I0121 10:20:00.091044 30601 net.cpp:150] Setting up conv1_1b2
I0121 10:20:00.091070 30601 net.cpp:157] Top shape: 28 64 112 112 (22478848)
I0121 10:20:00.091075 30601 net.cpp:165] Memory required for data: 153137264
I0121 10:20:00.091084 30601 layer_factory.hpp:77] Creating layer relu1_1
I0121 10:20:00.091104 30601 net.cpp:106] Creating Layer relu1_1
I0121 10:20:00.091109 30601 net.cpp:454] relu1_1 <- conv1_1b2
I0121 10:20:00.091125 30601 net.cpp:397] relu1_1 -> conv1_1b2 (in-place)
I0121 10:20:00.091418 30601 net.cpp:150] Setting up relu1_1
I0121 10:20:00.091442 30601 net.cpp:157] Top shape: 28 64 112 112 (22478848)
I0121 10:20:00.091461 30601 net.cpp:165] Memory required for data: 243052656
I0121 10:20:00.091466 30601 layer_factory.hpp:77] Creating layer conv1_1_bn
I0121 10:20:00.091486 30601 net.cpp:106] Creating Layer conv1_1_bn
I0121 10:20:00.091491 30601 net.cpp:454] conv1_1_bn <- conv1_1b2
I0121 10:20:00.091507 30601 net.cpp:411] conv1_1_bn -> conv1_1_bn
I0121 10:20:00.091717 30601 net.cpp:150] Setting up conv1_1_bn
I0121 10:20:00.091725 30601 net.cpp:157] Top shape: 28 64 112 112 (22478848)
I0121 10:20:00.091739 30601 net.cpp:165] Memory required for data: 332968048
I0121 10:20:00.091750 30601 layer_factory.hpp:77] Creating layer pool1
I0121 10:20:00.091758 30601 net.cpp:106] Creating Layer pool1
I0121 10:20:00.091763 30601 net.cpp:454] pool1 <- conv1_1_bn
I0121 10:20:00.091769 30601 net.cpp:411] pool1 -> pool1_1
I0121 10:20:00.091933 30601 net.cpp:150] Setting up pool1
I0121 10:20:00.091944 30601 net.cpp:157] Top shape: 28 64 56 56 (5619712)
I0121 10:20:00.091949 30601 net.cpp:165] Memory required for data: 355446896
I0121 10:20:00.091954 30601 layer_factory.hpp:77] Creating layer conv2_1
I0121 10:20:00.091976 30601 net.cpp:106] Creating Layer conv2_1
I0121 10:20:00.091991 30601 net.cpp:454] conv2_1 <- pool1_1
I0121 10:20:00.091998 30601 net.cpp:411] conv2_1 -> conv2_1
I0121 10:20:00.093013 30601 net.cpp:150] Setting up conv2_1
I0121 10:20:00.093029 30601 net.cpp:157] Top shape: 28 64 56 56 (5619712)
I0121 10:20:00.093034 30601 net.cpp:165] Memory required for data: 377925744
I0121 10:20:00.093053 30601 layer_factory.hpp:77] Creating layer relu2_1
I0121 10:20:00.093061 30601 net.cpp:106] Creating Layer relu2_1
I0121 10:20:00.093076 30601 net.cpp:454] relu2_1 <- conv2_1
I0121 10:20:00.093082 30601 net.cpp:397] relu2_1 -> conv2_1 (in-place)
I0121 10:20:00.093302 30601 net.cpp:150] Setting up relu2_1
I0121 10:20:00.093317 30601 net.cpp:157] Top shape: 28 64 56 56 (5619712)
I0121 10:20:00.093333 30601 net.cpp:165] Memory required for data: 400404592
I0121 10:20:00.093338 30601 layer_factory.hpp:77] Creating layer conv2_1_bn
I0121 10:20:00.093355 30601 net.cpp:106] Creating Layer conv2_1_bn
I0121 10:20:00.093359 30601 net.cpp:454] conv2_1_bn <- conv2_1
I0121 10:20:00.093376 30601 net.cpp:411] conv2_1_bn -> conv2_1_bn
I0121 10:20:00.093524 30601 net.cpp:150] Setting up conv2_1_bn
I0121 10:20:00.093533 30601 net.cpp:157] Top shape: 28 64 56 56 (5619712)
I0121 10:20:00.093538 30601 net.cpp:165] Memory required for data: 422883440
I0121 10:20:00.093546 30601 layer_factory.hpp:77] Creating layer conv3_1a
I0121 10:20:00.093569 30601 net.cpp:106] Creating Layer conv3_1a
I0121 10:20:00.093575 30601 net.cpp:454] conv3_1a <- conv2_1_bn
I0121 10:20:00.093580 30601 net.cpp:411] conv3_1a -> conv3_1a
I0121 10:20:00.094296 30601 net.cpp:150] Setting up conv3_1a
I0121 10:20:00.094311 30601 net.cpp:157] Top shape: 28 48 28 56 (2107392)
I0121 10:20:00.094316 30601 net.cpp:165] Memory required for data: 431313008
I0121 10:20:00.094323 30601 layer_factory.hpp:77] Creating layer conv3_1b1
I0121 10:20:00.094334 30601 net.cpp:106] Creating Layer conv3_1b1
I0121 10:20:00.094341 30601 net.cpp:454] conv3_1b1 <- conv3_1a
I0121 10:20:00.094348 30601 net.cpp:411] conv3_1b1 -> conv3_1b1
I0121 10:20:00.095221 30601 net.cpp:150] Setting up conv3_1b1
I0121 10:20:00.095237 30601 net.cpp:157] Top shape: 28 48 28 28 (1053696)
I0121 10:20:00.095242 30601 net.cpp:165] Memory required for data: 435527792
I0121 10:20:00.095252 30601 layer_factory.hpp:77] Creating layer conv3_1b2
I0121 10:20:00.095274 30601 net.cpp:106] Creating Layer conv3_1b2
I0121 10:20:00.095280 30601 net.cpp:454] conv3_1b2 <- conv3_1b1
I0121 10:20:00.095288 30601 net.cpp:411] conv3_1b2 -> conv3_1b2
I0121 10:20:00.096060 30601 net.cpp:150] Setting up conv3_1b2
I0121 10:20:00.096076 30601 net.cpp:157] Top shape: 28 96 28 28 (2107392)
I0121 10:20:00.096081 30601 net.cpp:165] Memory required for data: 443957360
I0121 10:20:00.096088 30601 layer_factory.hpp:77] Creating layer relu3_1
I0121 10:20:00.096096 30601 net.cpp:106] Creating Layer relu3_1
I0121 10:20:00.096101 30601 net.cpp:454] relu3_1 <- conv3_1b2
I0121 10:20:00.096107 30601 net.cpp:397] relu3_1 -> conv3_1b2 (in-place)
I0121 10:20:00.096240 30601 net.cpp:150] Setting up relu3_1
I0121 10:20:00.096252 30601 net.cpp:157] Top shape: 28 96 28 28 (2107392)
I0121 10:20:00.096257 30601 net.cpp:165] Memory required for data: 452386928
I0121 10:20:00.096262 30601 layer_factory.hpp:77] Creating layer conv3_1_bn
I0121 10:20:00.096268 30601 net.cpp:106] Creating Layer conv3_1_bn
I0121 10:20:00.096273 30601 net.cpp:454] conv3_1_bn <- conv3_1b2
I0121 10:20:00.096278 30601 net.cpp:411] conv3_1_bn -> conv3_1_bn
I0121 10:20:00.096434 30601 net.cpp:150] Setting up conv3_1_bn
I0121 10:20:00.096443 30601 net.cpp:157] Top shape: 28 96 28 28 (2107392)
I0121 10:20:00.096448 30601 net.cpp:165] Memory required for data: 460816496
I0121 10:20:00.096457 30601 layer_factory.hpp:77] Creating layer conv3_2a
I0121 10:20:00.096468 30601 net.cpp:106] Creating Layer conv3_2a
I0121 10:20:00.096474 30601 net.cpp:454] conv3_2a <- conv3_1_bn
I0121 10:20:00.096480 30601 net.cpp:411] conv3_2a -> conv3_2a
I0121 10:20:00.097403 30601 net.cpp:150] Setting up conv3_2a
I0121 10:20:00.097417 30601 net.cpp:157] Top shape: 28 64 28 28 (1404928)
I0121 10:20:00.097422 30601 net.cpp:165] Memory required for data: 466436208
I0121 10:20:00.097429 30601 layer_factory.hpp:77] Creating layer conv3_2b1
I0121 10:20:00.097443 30601 net.cpp:106] Creating Layer conv3_2b1
I0121 10:20:00.097450 30601 net.cpp:454] conv3_2b1 <- conv3_2a
I0121 10:20:00.097457 30601 net.cpp:411] conv3_2b1 -> conv3_2b1
I0121 10:20:00.098273 30601 net.cpp:150] Setting up conv3_2b1
I0121 10:20:00.098289 30601 net.cpp:157] Top shape: 28 64 28 28 (1404928)
I0121 10:20:00.098294 30601 net.cpp:165] Memory required for data: 472055920
I0121 10:20:00.098300 30601 layer_factory.hpp:77] Creating layer conv3_2b2
I0121 10:20:00.098312 30601 net.cpp:106] Creating Layer conv3_2b2
I0121 10:20:00.098320 30601 net.cpp:454] conv3_2b2 <- conv3_2b1
I0121 10:20:00.098327 30601 net.cpp:411] conv3_2b2 -> conv3_2b2
I0121 10:20:00.099094 30601 net.cpp:150] Setting up conv3_2b2
I0121 10:20:00.099109 30601 net.cpp:157] Top shape: 28 96 28 28 (2107392)
I0121 10:20:00.099114 30601 net.cpp:165] Memory required for data: 480485488
I0121 10:20:00.099122 30601 layer_factory.hpp:77] Creating layer relu3_2
I0121 10:20:00.099129 30601 net.cpp:106] Creating Layer relu3_2
I0121 10:20:00.099134 30601 net.cpp:454] relu3_2 <- conv3_2b2
I0121 10:20:00.099140 30601 net.cpp:397] relu3_2 -> conv3_2b2 (in-place)
I0121 10:20:00.099273 30601 net.cpp:150] Setting up relu3_2
I0121 10:20:00.099283 30601 net.cpp:157] Top shape: 28 96 28 28 (2107392)
I0121 10:20:00.099288 30601 net.cpp:165] Memory required for data: 488915056
I0121 10:20:00.099293 30601 layer_factory.hpp:77] Creating layer conv3_2_bn
I0121 10:20:00.099300 30601 net.cpp:106] Creating Layer conv3_2_bn
I0121 10:20:00.099305 30601 net.cpp:454] conv3_2_bn <- conv3_2b2
I0121 10:20:00.099311 30601 net.cpp:411] conv3_2_bn -> conv3_2_bn
I0121 10:20:00.099478 30601 net.cpp:150] Setting up conv3_2_bn
I0121 10:20:00.099488 30601 net.cpp:157] Top shape: 28 96 28 28 (2107392)
I0121 10:20:00.099493 30601 net.cpp:165] Memory required for data: 497344624
I0121 10:20:00.099501 30601 layer_factory.hpp:77] Creating layer conv3_3a
I0121 10:20:00.099514 30601 net.cpp:106] Creating Layer conv3_3a
I0121 10:20:00.099520 30601 net.cpp:454] conv3_3a <- conv3_2_bn
I0121 10:20:00.099527 30601 net.cpp:411] conv3_3a -> conv3_3a
I0121 10:20:00.100340 30601 net.cpp:150] Setting up conv3_3a
I0121 10:20:00.100364 30601 net.cpp:157] Top shape: 28 48 28 28 (1053696)
I0121 10:20:00.100371 30601 net.cpp:165] Memory required for data: 501559408
I0121 10:20:00.100381 30601 layer_factory.hpp:77] Creating layer conv3_3b1
I0121 10:20:00.100394 30601 net.cpp:106] Creating Layer conv3_3b1
I0121 10:20:00.100400 30601 net.cpp:454] conv3_3b1 <- conv3_3a
I0121 10:20:00.100407 30601 net.cpp:411] conv3_3b1 -> conv3_3b1
I0121 10:20:00.101202 30601 net.cpp:150] Setting up conv3_3b1
I0121 10:20:00.101217 30601 net.cpp:157] Top shape: 28 48 28 28 (1053696)
I0121 10:20:00.101222 30601 net.cpp:165] Memory required for data: 505774192
I0121 10:20:00.101229 30601 layer_factory.hpp:77] Creating layer conv3_3b2
I0121 10:20:00.101240 30601 net.cpp:106] Creating Layer conv3_3b2
I0121 10:20:00.101248 30601 net.cpp:454] conv3_3b2 <- conv3_3b1
I0121 10:20:00.101254 30601 net.cpp:411] conv3_3b2 -> conv3_3b2
I0121 10:20:00.102021 30601 net.cpp:150] Setting up conv3_3b2
I0121 10:20:00.102037 30601 net.cpp:157] Top shape: 28 96 28 28 (2107392)
I0121 10:20:00.102043 30601 net.cpp:165] Memory required for data: 514203760
I0121 10:20:00.102051 30601 layer_factory.hpp:77] Creating layer relu3_3
I0121 10:20:00.102057 30601 net.cpp:106] Creating Layer relu3_3
I0121 10:20:00.102062 30601 net.cpp:454] relu3_3 <- conv3_3b2
I0121 10:20:00.102068 30601 net.cpp:397] relu3_3 -> conv3_3b2 (in-place)
I0121 10:20:00.102202 30601 net.cpp:150] Setting up relu3_3
I0121 10:20:00.102213 30601 net.cpp:157] Top shape: 28 96 28 28 (2107392)
I0121 10:20:00.102218 30601 net.cpp:165] Memory required for data: 522633328
I0121 10:20:00.102222 30601 layer_factory.hpp:77] Creating layer conv3_3_bn
I0121 10:20:00.102229 30601 net.cpp:106] Creating Layer conv3_3_bn
I0121 10:20:00.102234 30601 net.cpp:454] conv3_3_bn <- conv3_3b2
I0121 10:20:00.102241 30601 net.cpp:411] conv3_3_bn -> conv3_3_bn
I0121 10:20:00.102403 30601 net.cpp:150] Setting up conv3_3_bn
I0121 10:20:00.102412 30601 net.cpp:157] Top shape: 28 96 28 28 (2107392)
I0121 10:20:00.102416 30601 net.cpp:165] Memory required for data: 531062896
I0121 10:20:00.102424 30601 layer_factory.hpp:77] Creating layer conv3_4
I0121 10:20:00.102437 30601 net.cpp:106] Creating Layer conv3_4
I0121 10:20:00.102443 30601 net.cpp:454] conv3_4 <- conv3_3_bn
I0121 10:20:00.102450 30601 net.cpp:411] conv3_4 -> conv3_4
I0121 10:20:00.103272 30601 net.cpp:150] Setting up conv3_4
I0121 10:20:00.103287 30601 net.cpp:157] Top shape: 28 144 28 28 (3161088)
I0121 10:20:00.103292 30601 net.cpp:165] Memory required for data: 543707248
I0121 10:20:00.103299 30601 layer_factory.hpp:77] Creating layer relu3_4
I0121 10:20:00.103308 30601 net.cpp:106] Creating Layer relu3_4
I0121 10:20:00.103313 30601 net.cpp:454] relu3_4 <- conv3_4
I0121 10:20:00.103319 30601 net.cpp:397] relu3_4 -> conv3_4 (in-place)
I0121 10:20:00.103560 30601 net.cpp:150] Setting up relu3_4
I0121 10:20:00.103575 30601 net.cpp:157] Top shape: 28 144 28 28 (3161088)
I0121 10:20:00.103580 30601 net.cpp:165] Memory required for data: 556351600
I0121 10:20:00.103585 30601 layer_factory.hpp:77] Creating layer conv3_4_bn
I0121 10:20:00.103591 30601 net.cpp:106] Creating Layer conv3_4_bn
I0121 10:20:00.103597 30601 net.cpp:454] conv3_4_bn <- conv3_4
I0121 10:20:00.103605 30601 net.cpp:411] conv3_4_bn -> conv3_4_bn
I0121 10:20:00.103768 30601 net.cpp:150] Setting up conv3_4_bn
I0121 10:20:00.103778 30601 net.cpp:157] Top shape: 28 144 28 28 (3161088)
I0121 10:20:00.103783 30601 net.cpp:165] Memory required for data: 568995952
I0121 10:20:00.103791 30601 layer_factory.hpp:77] Creating layer pool3
I0121 10:20:00.103799 30601 net.cpp:106] Creating Layer pool3
I0121 10:20:00.103803 30601 net.cpp:454] pool3 <- conv3_4_bn
I0121 10:20:00.103811 30601 net.cpp:411] pool3 -> pool3
I0121 10:20:00.103971 30601 net.cpp:150] Setting up pool3
I0121 10:20:00.103984 30601 net.cpp:157] Top shape: 28 144 14 14 (790272)
I0121 10:20:00.103991 30601 net.cpp:165] Memory required for data: 572157040
I0121 10:20:00.103996 30601 layer_factory.hpp:77] Creating layer conv4_1a
I0121 10:20:00.104004 30601 net.cpp:106] Creating Layer conv4_1a
I0121 10:20:00.104018 30601 net.cpp:454] conv4_1a <- pool3
I0121 10:20:00.104027 30601 net.cpp:411] conv4_1a -> conv4_1a
I0121 10:20:00.105064 30601 net.cpp:150] Setting up conv4_1a
I0121 10:20:00.105079 30601 net.cpp:157] Top shape: 28 110 14 14 (603680)
I0121 10:20:00.105084 30601 net.cpp:165] Memory required for data: 574571760
I0121 10:20:00.105092 30601 layer_factory.hpp:77] Creating layer conv4_1b1
I0121 10:20:00.105103 30601 net.cpp:106] Creating Layer conv4_1b1
I0121 10:20:00.105109 30601 net.cpp:454] conv4_1b1 <- conv4_1a
I0121 10:20:00.105116 30601 net.cpp:411] conv4_1b1 -> conv4_1b1
I0121 10:20:00.106194 30601 net.cpp:150] Setting up conv4_1b1
I0121 10:20:00.106209 30601 net.cpp:157] Top shape: 28 110 14 14 (603680)
I0121 10:20:00.106215 30601 net.cpp:165] Memory required for data: 576986480
I0121 10:20:00.106220 30601 layer_factory.hpp:77] Creating layer conv4_1b2
I0121 10:20:00.106235 30601 net.cpp:106] Creating Layer conv4_1b2
I0121 10:20:00.106241 30601 net.cpp:454] conv4_1b2 <- conv4_1b1
I0121 10:20:00.106248 30601 net.cpp:411] conv4_1b2 -> conv4_1b2
I0121 10:20:00.107127 30601 net.cpp:150] Setting up conv4_1b2
I0121 10:20:00.107142 30601 net.cpp:157] Top shape: 28 144 14 14 (790272)
I0121 10:20:00.107147 30601 net.cpp:165] Memory required for data: 580147568
I0121 10:20:00.107154 30601 layer_factory.hpp:77] Creating layer relu4_1
I0121 10:20:00.107166 30601 net.cpp:106] Creating Layer relu4_1
I0121 10:20:00.107172 30601 net.cpp:454] relu4_1 <- conv4_1b2
I0121 10:20:00.107178 30601 net.cpp:397] relu4_1 -> conv4_1b2 (in-place)
I0121 10:20:00.107317 30601 net.cpp:150] Setting up relu4_1
I0121 10:20:00.107332 30601 net.cpp:157] Top shape: 28 144 14 14 (790272)
I0121 10:20:00.107337 30601 net.cpp:165] Memory required for data: 583308656
I0121 10:20:00.107342 30601 layer_factory.hpp:77] Creating layer conv4_1_bn
I0121 10:20:00.107349 30601 net.cpp:106] Creating Layer conv4_1_bn
I0121 10:20:00.107354 30601 net.cpp:454] conv4_1_bn <- conv4_1b2
I0121 10:20:00.107362 30601 net.cpp:411] conv4_1_bn -> conv4_1_bn
I0121 10:20:00.107529 30601 net.cpp:150] Setting up conv4_1_bn
I0121 10:20:00.107539 30601 net.cpp:157] Top shape: 28 144 14 14 (790272)
I0121 10:20:00.107543 30601 net.cpp:165] Memory required for data: 586469744
I0121 10:20:00.107553 30601 layer_factory.hpp:77] Creating layer conv4_2
I0121 10:20:00.107564 30601 net.cpp:106] Creating Layer conv4_2
I0121 10:20:00.107571 30601 net.cpp:454] conv4_2 <- conv4_1_bn
I0121 10:20:00.107578 30601 net.cpp:411] conv4_2 -> conv4_2
I0121 10:20:00.109688 30601 net.cpp:150] Setting up conv4_2
I0121 10:20:00.109704 30601 net.cpp:157] Top shape: 28 144 14 14 (790272)
I0121 10:20:00.109709 30601 net.cpp:165] Memory required for data: 589630832
I0121 10:20:00.109715 30601 layer_factory.hpp:77] Creating layer relu4_2
I0121 10:20:00.109722 30601 net.cpp:106] Creating Layer relu4_2
I0121 10:20:00.109727 30601 net.cpp:454] relu4_2 <- conv4_2
I0121 10:20:00.109733 30601 net.cpp:397] relu4_2 -> conv4_2 (in-place)
I0121 10:20:00.109872 30601 net.cpp:150] Setting up relu4_2
I0121 10:20:00.109884 30601 net.cpp:157] Top shape: 28 144 14 14 (790272)
I0121 10:20:00.109889 30601 net.cpp:165] Memory required for data: 592791920
I0121 10:20:00.109892 30601 layer_factory.hpp:77] Creating layer conv4_2_bn
I0121 10:20:00.109915 30601 net.cpp:106] Creating Layer conv4_2_bn
I0121 10:20:00.109920 30601 net.cpp:454] conv4_2_bn <- conv4_2
I0121 10:20:00.109925 30601 net.cpp:411] conv4_2_bn -> conv4_2_bn
I0121 10:20:00.110132 30601 net.cpp:150] Setting up conv4_2_bn
I0121 10:20:00.110141 30601 net.cpp:157] Top shape: 28 144 14 14 (790272)
I0121 10:20:00.110155 30601 net.cpp:165] Memory required for data: 595953008
I0121 10:20:00.110163 30601 layer_factory.hpp:77] Creating layer conv4_3
I0121 10:20:00.110175 30601 net.cpp:106] Creating Layer conv4_3
I0121 10:20:00.110182 30601 net.cpp:454] conv4_3 <- conv4_2_bn
I0121 10:20:00.110188 30601 net.cpp:411] conv4_3 -> conv4_3
I0121 10:20:00.112335 30601 net.cpp:150] Setting up conv4_3
I0121 10:20:00.112351 30601 net.cpp:157] Top shape: 28 144 14 14 (790272)
I0121 10:20:00.112366 30601 net.cpp:165] Memory required for data: 599114096
I0121 10:20:00.112373 30601 layer_factory.hpp:77] Creating layer relu4_3
I0121 10:20:00.112381 30601 net.cpp:106] Creating Layer relu4_3
I0121 10:20:00.112386 30601 net.cpp:454] relu4_3 <- conv4_3
I0121 10:20:00.112396 30601 net.cpp:397] relu4_3 -> conv4_3 (in-place)
I0121 10:20:00.112622 30601 net.cpp:150] Setting up relu4_3
I0121 10:20:00.112637 30601 net.cpp:157] Top shape: 28 144 14 14 (790272)
I0121 10:20:00.112642 30601 net.cpp:165] Memory required for data: 602275184
I0121 10:20:00.112645 30601 layer_factory.hpp:77] Creating layer conv4_3_bn
I0121 10:20:00.112663 30601 net.cpp:106] Creating Layer conv4_3_bn
I0121 10:20:00.112668 30601 net.cpp:454] conv4_3_bn <- conv4_3
I0121 10:20:00.112684 30601 net.cpp:411] conv4_3_bn -> conv4_3_bn
I0121 10:20:00.112861 30601 net.cpp:150] Setting up conv4_3_bn
I0121 10:20:00.112870 30601 net.cpp:157] Top shape: 28 144 14 14 (790272)
I0121 10:20:00.112884 30601 net.cpp:165] Memory required for data: 605436272
I0121 10:20:00.112902 30601 layer_factory.hpp:77] Creating layer conv5_1
I0121 10:20:00.112913 30601 net.cpp:106] Creating Layer conv5_1
I0121 10:20:00.112918 30601 net.cpp:454] conv5_1 <- conv4_3_bn
I0121 10:20:00.112926 30601 net.cpp:411] conv5_1 -> conv5_1
I0121 10:20:00.115847 30601 net.cpp:150] Setting up conv5_1
I0121 10:20:00.115864 30601 net.cpp:157] Top shape: 28 256 14 14 (1404928)
I0121 10:20:00.115869 30601 net.cpp:165] Memory required for data: 611055984
I0121 10:20:00.115876 30601 layer_factory.hpp:77] Creating layer relu5_1
I0121 10:20:00.115897 30601 net.cpp:106] Creating Layer relu5_1
I0121 10:20:00.115902 30601 net.cpp:454] relu5_1 <- conv5_1
I0121 10:20:00.115908 30601 net.cpp:397] relu5_1 -> conv5_1 (in-place)
I0121 10:20:00.116055 30601 net.cpp:150] Setting up relu5_1
I0121 10:20:00.116066 30601 net.cpp:157] Top shape: 28 256 14 14 (1404928)
I0121 10:20:00.116071 30601 net.cpp:165] Memory required for data: 616675696
I0121 10:20:00.116075 30601 layer_factory.hpp:77] Creating layer conv5_1_bn
I0121 10:20:00.116092 30601 net.cpp:106] Creating Layer conv5_1_bn
I0121 10:20:00.116106 30601 net.cpp:454] conv5_1_bn <- conv5_1
I0121 10:20:00.116113 30601 net.cpp:411] conv5_1_bn -> conv5_1_bn
I0121 10:20:00.116313 30601 net.cpp:150] Setting up conv5_1_bn
I0121 10:20:00.116322 30601 net.cpp:157] Top shape: 28 256 14 14 (1404928)
I0121 10:20:00.116328 30601 net.cpp:165] Memory required for data: 622295408
I0121 10:20:00.116335 30601 layer_factory.hpp:77] Creating layer pool5_1
I0121 10:20:00.116356 30601 net.cpp:106] Creating Layer pool5_1
I0121 10:20:00.116372 30601 net.cpp:454] pool5_1 <- conv5_1_bn
I0121 10:20:00.116387 30601 net.cpp:411] pool5_1 -> pool5_1
I0121 10:20:00.116672 30601 net.cpp:150] Setting up pool5_1
I0121 10:20:00.116685 30601 net.cpp:157] Top shape: 28 256 13 13 (1211392)
I0121 10:20:00.116703 30601 net.cpp:165] Memory required for data: 627140976
I0121 10:20:00.116708 30601 layer_factory.hpp:77] Creating layer conv5_2
I0121 10:20:00.116739 30601 net.cpp:106] Creating Layer conv5_2
I0121 10:20:00.116745 30601 net.cpp:454] conv5_2 <- pool5_1
I0121 10:20:00.116765 30601 net.cpp:411] conv5_2 -> conv5_2
I0121 10:20:00.118356 30601 net.cpp:150] Setting up conv5_2
I0121 10:20:00.118371 30601 net.cpp:157] Top shape: 28 384 13 13 (1817088)
I0121 10:20:00.118376 30601 net.cpp:165] Memory required for data: 634409328
I0121 10:20:00.118383 30601 layer_factory.hpp:77] Creating layer relu5_2
I0121 10:20:00.118402 30601 net.cpp:106] Creating Layer relu5_2
I0121 10:20:00.118407 30601 net.cpp:454] relu5_2 <- conv5_2
I0121 10:20:00.118423 30601 net.cpp:397] relu5_2 -> conv5_2 (in-place)
I0121 10:20:00.118684 30601 net.cpp:150] Setting up relu5_2
I0121 10:20:00.118696 30601 net.cpp:157] Top shape: 28 384 13 13 (1817088)
I0121 10:20:00.118716 30601 net.cpp:165] Memory required for data: 641677680
I0121 10:20:00.118721 30601 layer_factory.hpp:77] Creating layer conv5_2_bn
I0121 10:20:00.118736 30601 net.cpp:106] Creating Layer conv5_2_bn
I0121 10:20:00.118769 30601 net.cpp:454] conv5_2_bn <- conv5_2
I0121 10:20:00.118777 30601 net.cpp:411] conv5_2_bn -> conv5_2_bn
I0121 10:20:00.118990 30601 net.cpp:150] Setting up conv5_2_bn
I0121 10:20:00.118999 30601 net.cpp:157] Top shape: 28 384 13 13 (1817088)
I0121 10:20:00.119004 30601 net.cpp:165] Memory required for data: 648946032
I0121 10:20:00.119012 30601 layer_factory.hpp:77] Creating layer pool5_2
I0121 10:20:00.119030 30601 net.cpp:106] Creating Layer pool5_2
I0121 10:20:00.119035 30601 net.cpp:454] pool5_2 <- conv5_2_bn
I0121 10:20:00.119041 30601 net.cpp:411] pool5_2 -> pool5_2
I0121 10:20:00.119303 30601 net.cpp:150] Setting up pool5_2
I0121 10:20:00.119318 30601 net.cpp:157] Top shape: 28 384 12 12 (1548288)
I0121 10:20:00.119340 30601 net.cpp:165] Memory required for data: 655139184
I0121 10:20:00.119355 30601 layer_factory.hpp:77] Creating layer conv5_3
I0121 10:20:00.119375 30601 net.cpp:106] Creating Layer conv5_3
I0121 10:20:00.119395 30601 net.cpp:454] conv5_3 <- pool5_2
I0121 10:20:00.119402 30601 net.cpp:411] conv5_3 -> conv5_3
I0121 10:20:00.121516 30601 net.cpp:150] Setting up conv5_3
I0121 10:20:00.121531 30601 net.cpp:157] Top shape: 28 512 12 12 (2064384)
I0121 10:20:00.121546 30601 net.cpp:165] Memory required for data: 663396720
I0121 10:20:00.121554 30601 layer_factory.hpp:77] Creating layer relu5_3
I0121 10:20:00.121562 30601 net.cpp:106] Creating Layer relu5_3
I0121 10:20:00.121567 30601 net.cpp:454] relu5_3 <- conv5_3
I0121 10:20:00.121573 30601 net.cpp:397] relu5_3 -> conv5_3 (in-place)
I0121 10:20:00.121808 30601 net.cpp:150] Setting up relu5_3
I0121 10:20:00.121820 30601 net.cpp:157] Top shape: 28 512 12 12 (2064384)
I0121 10:20:00.121839 30601 net.cpp:165] Memory required for data: 671654256
I0121 10:20:00.121842 30601 layer_factory.hpp:77] Creating layer conv5_3_bn
I0121 10:20:00.121860 30601 net.cpp:106] Creating Layer conv5_3_bn
I0121 10:20:00.121875 30601 net.cpp:454] conv5_3_bn <- conv5_3
I0121 10:20:00.121894 30601 net.cpp:411] conv5_3_bn -> conv5_3_bn
I0121 10:20:00.122084 30601 net.cpp:150] Setting up conv5_3_bn
I0121 10:20:00.122093 30601 net.cpp:157] Top shape: 28 512 12 12 (2064384)
I0121 10:20:00.122110 30601 net.cpp:165] Memory required for data: 679911792
I0121 10:20:00.122128 30601 layer_factory.hpp:77] Creating layer pool5_3
I0121 10:20:00.122136 30601 net.cpp:106] Creating Layer pool5_3
I0121 10:20:00.122153 30601 net.cpp:454] pool5_3 <- conv5_3_bn
I0121 10:20:00.122167 30601 net.cpp:411] pool5_3 -> pool5_3
I0121 10:20:00.122350 30601 net.cpp:150] Setting up pool5_3
I0121 10:20:00.122361 30601 net.cpp:157] Top shape: 28 512 6 6 (516096)
I0121 10:20:00.122376 30601 net.cpp:165] Memory required for data: 681976176
I0121 10:20:00.122381 30601 layer_factory.hpp:77] Creating layer fc6
I0121 10:20:00.122390 30601 net.cpp:106] Creating Layer fc6
I0121 10:20:00.122395 30601 net.cpp:454] fc6 <- pool5_3
I0121 10:20:00.122402 30601 net.cpp:411] fc6 -> fc6
I0121 10:20:00.361924 30601 net.cpp:150] Setting up fc6
I0121 10:20:00.361960 30601 net.cpp:157] Top shape: 28 2048 (57344)
I0121 10:20:00.361965 30601 net.cpp:165] Memory required for data: 682205552
I0121 10:20:00.361975 30601 layer_factory.hpp:77] Creating layer relu6
I0121 10:20:00.361995 30601 net.cpp:106] Creating Layer relu6
I0121 10:20:00.362001 30601 net.cpp:454] relu6 <- fc6
I0121 10:20:00.362018 30601 net.cpp:397] relu6 -> fc6 (in-place)
I0121 10:20:00.362422 30601 net.cpp:150] Setting up relu6
I0121 10:20:00.362447 30601 net.cpp:157] Top shape: 28 2048 (57344)
I0121 10:20:00.362452 30601 net.cpp:165] Memory required for data: 682434928
I0121 10:20:00.362467 30601 layer_factory.hpp:77] Creating layer fc6_bn
I0121 10:20:00.362473 30601 net.cpp:106] Creating Layer fc6_bn
I0121 10:20:00.362490 30601 net.cpp:454] fc6_bn <- fc6
I0121 10:20:00.362507 30601 net.cpp:411] fc6_bn -> fc6_bn
I0121 10:20:00.362742 30601 net.cpp:150] Setting up fc6_bn
I0121 10:20:00.362751 30601 net.cpp:157] Top shape: 28 2048 (57344)
I0121 10:20:00.362756 30601 net.cpp:165] Memory required for data: 682664304
I0121 10:20:00.362764 30601 layer_factory.hpp:77] Creating layer fc7
I0121 10:20:00.362809 30601 net.cpp:106] Creating Layer fc7
I0121 10:20:00.362814 30601 net.cpp:454] fc7 <- fc6_bn
I0121 10:20:00.362831 30601 net.cpp:411] fc7 -> fc7
I0121 10:20:00.389564 30601 net.cpp:150] Setting up fc7
I0121 10:20:00.389600 30601 net.cpp:157] Top shape: 28 2048 (57344)
I0121 10:20:00.389605 30601 net.cpp:165] Memory required for data: 682893680
I0121 10:20:00.389616 30601 layer_factory.hpp:77] Creating layer relu7
I0121 10:20:00.389637 30601 net.cpp:106] Creating Layer relu7
I0121 10:20:00.389654 30601 net.cpp:454] relu7 <- fc7
I0121 10:20:00.389662 30601 net.cpp:397] relu7 -> fc7 (in-place)
I0121 10:20:00.389937 30601 net.cpp:150] Setting up relu7
I0121 10:20:00.389950 30601 net.cpp:157] Top shape: 28 2048 (57344)
I0121 10:20:00.389955 30601 net.cpp:165] Memory required for data: 683123056
I0121 10:20:00.389961 30601 layer_factory.hpp:77] Creating layer fc7_bn
I0121 10:20:00.389979 30601 net.cpp:106] Creating Layer fc7_bn
I0121 10:20:00.389986 30601 net.cpp:454] fc7_bn <- fc7
I0121 10:20:00.390002 30601 net.cpp:411] fc7_bn -> fc7_bn
I0121 10:20:00.390245 30601 net.cpp:150] Setting up fc7_bn
I0121 10:20:00.390254 30601 net.cpp:157] Top shape: 28 2048 (57344)
I0121 10:20:00.390259 30601 net.cpp:165] Memory required for data: 683352432
I0121 10:20:00.390267 30601 layer_factory.hpp:77] Creating layer fc8
I0121 10:20:00.390287 30601 net.cpp:106] Creating Layer fc8
I0121 10:20:00.390302 30601 net.cpp:454] fc8 <- fc7_bn
I0121 10:20:00.390310 30601 net.cpp:411] fc8 -> fc8
I0121 10:20:00.403697 30601 net.cpp:150] Setting up fc8
I0121 10:20:00.403728 30601 net.cpp:157] Top shape: 28 1000 (28000)
I0121 10:20:00.403733 30601 net.cpp:165] Memory required for data: 683464432
I0121 10:20:00.403741 30601 layer_factory.hpp:77] Creating layer loss
I0121 10:20:00.403762 30601 net.cpp:106] Creating Layer loss
I0121 10:20:00.403779 30601 net.cpp:454] loss <- fc8
I0121 10:20:00.403785 30601 net.cpp:454] loss <- label
I0121 10:20:00.403792 30601 net.cpp:411] loss -> loss
I0121 10:20:00.403816 30601 layer_factory.hpp:77] Creating layer loss
…
I0121 10:20:00.406388 30601 net.cpp:322] The NetState phase (1) differed from the phase (0) specified by a rule in layer data
I0121 10:20:00.406852 30601 net.cpp:49] Initializing net from parameters: 
name: "PVA-Net"
state {
  phase: TEST
}
layer {
  name: "data"
  type: "Data"
  top: "data"
  top: "label"
  include {
    phase: TEST
  }
  transform_param {
    mirror: true
    crop_size: 224
    mean_value: 104
    mean_value: 117
    mean_value: 123
  }
  data_param {
    source: "data/imagenet/ilsvrc12_val_lmdb"
    batch_size: 16
    backend: LMDB
  }
}
layer {
  name: "conv1_1a"
  type: "Convolution"
  bottom: "data"
  top: "conv1_1a"
  param {
    lr_mult: 1
    decay_mult: 1
  }
  param {
    lr_mult: 2
    decay_mult: 0
  }
  convolution_param {
    num_output: 11
    weight_filler {
      type: "xavier"
      std: 0.1
    }
    bias_filler {
      type: "constant"
      value: 0.1
    }
    pad_h: 3
    pad_w: 0
    kernel_h: 7
    kernel_w: 1
    stride_h: 2
    stride_w: 1
  }
}
layer {
  name: "conv1_1b1"
  type: "Convolution"
  bottom: "conv1_1a"
  top: "conv1_1b1"
  param {
    lr_mult: 1
    decay_mult: 1
  }
  param {
    lr_mult: 2
    decay_mult: 0
  }
  convolution_param {
    num_output: 11
    weight_filler {
      type: "xavier"
      std: 0.1
    }
    bias_filler {
      type: "constant"
      value: 0.1
    }
    pad_h: 0
    pad_w: 3
    kernel_h: 1
    kernel_w: 7
    stride_h: 1
    stride_w: 2
  }
}
layer {
  name: "conv1_1b2"
  type: "Convolution"
  bottom: "conv1_1b1"
  top: "conv1_1b2"
  param {
    lr_mult: 1
    decay_mult: 1
  }
  param {
    lr_mult: 2
    decay_mult: 0
  }
  convolution_param {
    num_output: 64
    pad: 0
    kernel_size: 1
    stride: 1
    weight_filler {
      type: "xavier"
      std: 0.1
    }
    bias_filler {
      type: "constant"
      value: 0.1
    }
  }
}
layer {
  name: "relu1_1"
  type: "ReLU"
  bottom: "conv1_1b2"
  top: "conv1_1b2"
}
layer {
  name: "conv1_1_bn"
  type: "BatchNorm"
  bottom: "conv1_1b2"
  top: "conv1_1_bn"
}
layer {
  name: "pool1"
  type: "Pooling"
  bottom: "conv1_1_bn"
  top: "pool1_1"
  pooling_param {
    pool: MAX
    kernel_size: 3
    stride: 2
  }
}
layer {
  name: "conv2_1"
  type: "Convolution"
  bottom: "pool1_1"
  top: "conv2_1"
  param {
    lr_mult: 1
    decay_mult: 1
  }
  param {
    lr_mult: 2
    decay_mult: 0
  }
  convolution_param {
    num_output: 64
    pad: 0
    kernel_size: 1
    stride: 1
    weight_filler {
      type: "xavier"
      std: 0.1
    }
    bias_filler {
      type: "constant"
      value: 0.1
    }
  }
}
layer {
  name: "relu2_1"
  type: "ReLU"
  bottom: "conv2_1"
  top: "conv2_1"
}
layer {
  name: "conv2_1_bn"
  type: "BatchNorm"
  bottom: "conv2_1"
  top: "conv2_1_bn"
}
layer {
  name: "conv3_1a"
  type: "Convolution"
  bottom: "conv2_1_bn"
  top: "conv3_1a"
  param {
    lr_mult: 1
    decay_mult: 1
  }
  param {
    lr_mult: 2
    decay_mult: 0
  }
  convolution_param {
    num_output: 48
    weight_filler {
      type: "xavier"
    }
    bias_filler {
      type: "constant"
      value: 0.1
    }
    pad_h: 2
    pad_w: 0
    kernel_h: 5
    kernel_w: 1
    stride_h: 2
    stride_w: 1
  }
}
layer {
  name: "conv3_1b1"
  type: "Convolution"
  bottom: "conv3_1a"
  top: "conv3_1b1"
  param {
    lr_mult: 1
    decay_mult: 1
  }
  param {
    lr_mult: 2
    decay_mult: 0
  }
  convolution_param {
    num_output: 48
    weight_filler {
      type: "xavier"
    }
    bias_filler {
      type: "constant"
      value: 0.1
    }
    pad_h: 0
    pad_w: 2
    kernel_h: 1
    kernel_w: 5
    stride_h: 1
    stride_w: 2
  }
}
layer {
  name: "conv3_1b2"
  type: "Convolution"
  bottom: "conv3_1b1"
  top: "conv3_1b2"
  param {
    lr_mult: 1
    decay_mult: 1
  }
  param {
    lr_mult: 2
    decay_mult: 0
  }
  convolution_param {
    num_output: 96
    pad: 0
    kernel_size: 1
    stride: 1
    weight_filler {
      type: "xavier"
    }
    bias_filler {
      type: "constant"
      value: 0.1
    }
  }
}
layer {
  name: "relu3_1"
  type: "ReLU"
  bottom: "conv3_1b2"
  top: "conv3_1b2"
}
layer {
  name: "conv3_1_bn"
  type: "BatchNorm"
  bottom: "conv3_1b2"
  top: "conv3_1_bn"
}
layer {
  name: "conv3_2a"
  type: "Convolution"
  bottom: "conv3_1_bn"
  top: "conv3_2a"
  param {
    lr_mult: 1
    decay_mult: 1
  }
  param {
    lr_mult: 2
    decay_mult: 0
  }
  convolution_param {
    num_output: 64
    weight_filler {
      type: "xavier"
    }
    bias_filler {
      type: "constant"
      value: 0.1
    }
    pad_h: 1
    pad_w: 0
    kernel_h: 3
    kernel_w: 1
    stride_h: 1
    stride_w: 1
  }
}
layer {
  name: "conv3_2b1"
  type: "Convolution"
  bottom: "conv3_2a"
  top: "conv3_2b1"
  param {
    lr_mult: 1
    decay_mult: 1
  }
  param {
    lr_mult: 2
    decay_mult: 0
  }
  convolution_param {
    num_output: 64
    weight_filler {
      type: "xavier"
    }
    bias_filler {
      type: "constant"
      value: 0.1
    }
    pad_h: 0
    pad_w: 1
    kernel_h: 1
    kernel_w: 3
    stride_h: 1
    stride_w: 1
  }
}
layer {
  name: "conv3_2b2"
  type: "Convolution"
  bottom: "conv3_2b1"
  top: "conv3_2b2"
  param {
    lr_mult: 1
    decay_mult: 1
  }
  param {
    lr_mult: 2
    decay_mult: 0
  }
  convolution_param {
    num_output: 96
    pad: 0
    kernel_size: 1
    stride: 1
    weight_filler {
      type: "xavier"
    }
    bias_filler {
      type: "constant"
      value: 0.1
    }
  }
}
layer {
  name: "relu3_2"
  type: "ReLU"
  bottom: "conv3_2b2"
  top: "conv3_2b2"
}
layer {
  name: "conv3_2_bn"
  type: "BatchNorm"
  bottom: "conv3_2b2"
  top: "conv3_2_bn"
}
layer {
  name: "conv3_3a"
  type: "Convolution"
  bottom: "conv3_2_bn"
  top: "conv3_3a"
  param {
    lr_mult: 1
    decay_mult: 1
  }
  param {
    lr_mult: 2
    decay_mult: 0
  }
  convolution_param {
    num_output: 48
    weight_filler {
      type: "xavier"
    }
    bias_filler {
      type: "constant"
      value: 0.1
    }
    pad_h: 1
    pad_w: 0
    kernel_h: 3
    kernel_w: 1
    stride_h: 1
    stride_w: 1
  }
}
layer {
  name: "conv3_3b1"
  type: "Convolution"
  bottom: "conv3_3a"
  top: "conv3_3b1"
  param {
    lr_mult: 1
    decay_mult: 1
  }
  param {
    lr_mult: 2
    decay_mult: 0
  }
  convolution_param {
    num_output: 48
    weight_filler {
      type: "xavier"
    }
    bias_filler {
      type: "constant"
      value: 0.1
    }
    pad_h: 0
    pad_w: 1
    kernel_h: 1
    kernel_w: 3
    stride_h: 1
    stride_w: 1
  }
}
layer {
  name: "conv3_3b2"
  type: "Convolution"
  bottom: "conv3_3b1"
  top: "conv3_3b2"
  param {
    lr_mult: 1
    decay_mult: 1
  }
  param {
    lr_mult: 2
    decay_mult: 0
  }
  convolution_param {
    num_output: 96
    pad: 0
    kernel_size: 1
    stride: 1
    weight_filler {
      type: "xavier"
    }
    bias_filler {
      type: "constant"
      value: 0.1
    }
  }
}
layer {
  name: "relu3_3"
  type: "ReLU"
  bottom: "conv3_3b2"
  top: "conv3_3b2"
}
layer {
  name: "conv3_3_bn"
  type: "BatchNorm"
  bottom: "conv3_3b2"
  top: "conv3_3_bn"
}
layer {
  name: "conv3_4"
  type: "Convolution"
  bottom: "conv3_3_bn"
  top: "conv3_4"
  param {
    lr_mult: 1
    decay_mult: 1
  }
  param {
    lr_mult: 2
    decay_mult: 0
  }
  convolution_param {
    num_output: 144
    pad: 0
    kernel_size: 1
    stride: 1
    weight_filler {
      type: "xavier"
    }
    bias_filler {
      type: "constant"
      value: 0.1
    }
  }
}
layer {
  name: "relu3_4"
  type: "ReLU"
  bottom: "conv3_4"
  top: "conv3_4"
}
layer {
  name: "conv3_4_bn"
  type: "BatchNorm"
  bottom: "conv3_4"
  top: "conv3_4_bn"
}
layer {
  name: "pool3"
  type: "Pooling"
  bottom: "conv3_4_bn"
  top: "pool3"
  pooling_param {
    pool: MAX
    kernel_size: 2
    stride: 2
  }
}
layer {
  name: "conv4_1a"
  type: "Convolution"
  bottom: "pool3"
  top: "conv4_1a"
  param {
    lr_mult: 1
    decay_mult: 1
  }
  param {
    lr_mult: 2
    decay_mult: 0
  }
  convolution_param {
    num_output: 110
    weight_filler {
      type: "xavier"
    }
    bias_filler {
      type: "constant"
      value: 0.1
    }
    pad_h: 1
    pad_w: 0
    kernel_h: 3
    kernel_w: 1
    stride_h: 1
    stride_w: 1
  }
}
layer {
  name: "conv4_1b1"
  type: "Convolution"
  bottom: "conv4_1a"
  top: "conv4_1b1"
  param {
    lr_mult: 1
    decay_mult: 1
  }
  param {
    lr_mult: 2
    decay_mult: 0
  }
  convolution_param {
    num_output: 110
    weight_filler {
      type: "xavier"
    }
    bias_filler {
      type: "constant"
      value: 0.1
    }
    pad_h: 0
    pad_w: 1
    kernel_h: 1
    kernel_w: 3
    stride_h: 1
    stride_w: 1
  }
}
layer {
  name: "conv4_1b2"
  type: "Convolution"
  bottom: "conv4_1b1"
  top: "conv4_1b2"
  param {
    lr_mult: 1
    decay_mult: 1
  }
  param {
    lr_mult: 2
    decay_mult: 0
  }
  convolution_param {
    num_output: 144
    pad: 0
    kernel_size: 1
    stride: 1
    weight_filler {
      type: "xavier"
    }
    bias_filler {
      type: "constant"
      value: 0.1
    }
  }
}
layer {
  name: "relu4_1"
  type: "ReLU"
  bottom: "conv4_1b2"
  top: "conv4_1b2"
}
layer {
  name: "conv4_1_bn"
  type: "BatchNorm"
  bottom: "conv4_1b2"
  top: "conv4_1_bn"
}
layer {
  name: "conv4_2"
  type: "Convolution"
  bottom: "conv4_1_bn"
  top: "conv4_2"
  param {
    lr_mult: 1
    decay_mult: 1
  }
  param {
    lr_mult: 2
    decay_mult: 0
  }
  convolution_param {
    num_output: 144
    pad: 1
    kernel_size: 3
    stride: 1
    weight_filler {
      type: "xavier"
    }
    bias_filler {
      type: "constant"
      value: 0.1
    }
  }
}
layer {
  name: "relu4_2"
  type: "ReLU"
  bottom: "conv4_2"
  top: "conv4_2"
}
layer {
  name: "conv4_2_bn"
  type: "BatchNorm"
  bottom: "conv4_2"
  top: "conv4_2_bn"
}
layer {
  name: "conv4_3"
  type: "Convolution"
  bottom: "conv4_2_bn"
  top: "conv4_3"
  param {
    lr_mult: 1
    decay_mult: 1
  }
  param {
    lr_mult: 2
    decay_mult: 0
  }
  convolution_param {
    num_output: 144
    pad: 1
    kernel_size: 3
    stride: 1
    weight_filler {
      type: "xavier"
    }
    bias_filler {
      type: "constant"
      value: 0.1
    }
  }
}
layer {
  name: "relu4_3"
  type: "ReLU"
  bottom: "conv4_3"
  top: "conv4_3"
}
layer {
  name: "conv4_3_bn"
  type: "BatchNorm"
  bottom: "conv4_3"
  top: "conv4_3_bn"
}
layer {
  name: "conv5_1"
  type: "Convolution"
  bottom: "conv4_3_bn"
  top: "conv5_1"
  param {
    lr_mult: 1
    decay_mult: 1
  }
  param {
    lr_mult: 2
    decay_mult: 0
  }
  convolution_param {
    num_output: 256
    pad: 1
    kernel_size: 3
    stride: 1
    weight_filler {
      type: "xavier"
    }
    bias_filler {
      type: "constant"
      value: 0.1
    }
  }
}
layer {
  name: "relu5_1"
  type: "ReLU"
  bottom: "conv5_1"
  top: "conv5_1"
}
layer {
  name: "conv5_1_bn"
  type: "BatchNorm"
  bottom: "conv5_1"
  top: "conv5_1_bn"
}
layer {
  name: "pool5_1"
  type: "Pooling"
  bottom: "conv5_1_bn"
  top: "pool5_1"
  pooling_param {
    pool: MAX
    kernel_size: 2
    stride: 1
  }
}
layer {
  name: "conv5_2"
  type: "Convolution"
  bottom: "pool5_1"
  top: "conv5_2"
  param {
    lr_mult: 1
    decay_mult: 1
  }
  param {
    lr_mult: 2
    decay_mult: 0
  }
  convolution_param {
    num_output: 384
    pad: 0
    kernel_size: 1
    stride: 1
    weight_filler {
      type: "xavier"
    }
    bias_filler {
      type: "constant"
      value: 0.1
    }
  }
}
layer {
  name: "relu5_2"
  type: "ReLU"
  bottom: "conv5_2"
  top: "conv5_2"
}
layer {
  name: "conv5_2_bn"
  type: "BatchNorm"
  bottom: "conv5_2"
  top: "conv5_2_bn"
}
layer {
  name: "pool5_2"
  type: "Pooling"
  bottom: "conv5_2_bn"
  top: "pool5_2"
  pooling_param {
    pool: MAX
    kernel_size: 2
    stride: 1
  }
}
layer {
  name: "conv5_3"
  type: "Convolution"
  bottom: "pool5_2"
  top: "conv5_3"
  param {
    lr_mult: 1
    decay_mult: 1
  }
  param {
    lr_mult: 2
    decay_mult: 0
  }
  convolution_param {
    num_output: 512
    pad: 0
    kernel_size: 1
    stride: 1
    weight_filler {
      type: "xavier"
    }
    bias_filler {
      type: "constant"
      value: 0.1
    }
  }
}
layer {
  name: "relu5_3"
  type: "ReLU"
  bottom: "conv5_3"
  top: "conv5_3"
}
layer {
  name: "conv5_3_bn"
  type: "BatchNorm"
  bottom: "conv5_3"
  top: "conv5_3_bn"
}
layer {
  name: "pool5_3"
  type: "Pooling"
  bottom: "conv5_3_bn"
  top: "pool5_3"
  pooling_param {
    pool: MAX
    kernel_size: 2
    stride: 2
  }
}
layer {
  name: "fc6"
  type: "InnerProduct"
  bottom: "pool5_3"
  top: "fc6"
  param {
    lr_mult: 1
    decay_mult: 1
  }
  param {
    lr_mult: 2
    decay_mult: 0
  }
  inner_product_param {
    num_output: 2048
    weight_filler {
      type: "xavier"
      std: 0.1
    }
    bias_filler {
      type: "constant"
      value: 0.1
    }
  }
}
layer {
  name: "relu6"
  type: "ReLU"
  bottom: "fc6"
  top: "fc6"
}
layer {
  name: "fc6_bn"
  type: "BatchNorm"
  bottom: "fc6"
  top: "fc6_bn"
}
layer {
  name: "fc7"
  type: "InnerProduct"
  bottom: "fc6_bn"
  top: "fc7"
  param {
    lr_mult: 1
    decay_mult: 1
  }
  param {
    lr_mult: 2
    decay_mult: 0
  }
  inner_product_param {
    num_output: 2048
    weight_filler {
      type: "xavier"
      std: 0.1
    }
    bias_filler {
      type: "constant"
      value: 0.1
    }
  }
}
layer {
  name: "relu7"
  type: "ReLU"
  bottom: "fc7"
  top: "fc7"
}
layer {
  name: "fc7_bn"
  type: "BatchNorm"
  bottom: "fc7"
  top: "fc7_bn"
}
layer {
  name: "fc8"
  type: "InnerProduct"
  bottom: "fc7_bn"
  top: "fc8"
  param {
    lr_mult: 1
    decay_mult: 1
  }
  param {
    lr_mult: 2
    decay_mult: 0
  }
  inner_product_param {
    num_output: 1000
    weight_filler {
      type: "xavier"
      std: 0.1
    }
    bias_filler {
      type: "constant"
      value: 0.1
    }
  }
}
layer {
  name: "accuracy"
  type: "Accuracy"
  bottom: "fc8"
  bottom: "label"
  top: "accuracy"
  include {
    phase: TEST
  }
  accuracy_param {
    top_k: 1
  }
}
layer {
  name: "loss"
  type: "SoftmaxWithLoss"
  bottom: "fc8"
  bottom: "label"
  top: "loss"
}
I0121 10:20:00.407127 30601 layer_factory.hpp:77] Creating layer data
I0121 10:20:00.407187 30601 net.cpp:106] Creating Layer data
I0121 10:20:00.407198 30601 net.cpp:411] data -> data
I0121 10:20:00.407219 30601 net.cpp:411] data -> label
I0121 10:20:00.407915 30612 db_lmdb.cpp:38] Opened lmdb data/imagenet/ilsvrc12_val_lmdb
I0121 10:20:00.408233 30601 data_layer.cpp:41] output data size: 16,3,224,224
I0121 10:20:00.421540 30601 net.cpp:150] Setting up data
I0121 10:20:00.421591 30601 net.cpp:157] Top shape: 16 3 224 224 (2408448)
I0121 10:20:00.421600 30601 net.cpp:157] Top shape: 16 (16)
I0121 10:20:00.421617 30601 net.cpp:165] Memory required for data: 9633856
I0121 10:20:00.421623 30601 layer_factory.hpp:77] Creating layer label_data_1_split
I0121 10:20:00.421649 30601 net.cpp:106] Creating Layer label_data_1_split
I0121 10:20:00.421658 30601 net.cpp:454] label_data_1_split <- label
I0121 10:20:00.421668 30601 net.cpp:411] label_data_1_split -> label_data_1_split_0
I0121 10:20:00.421689 30601 net.cpp:411] label_data_1_split -> label_data_1_split_1
I0121 10:20:00.421950 30601 net.cpp:150] Setting up label_data_1_split
I0121 10:20:00.421979 30601 net.cpp:157] Top shape: 16 (16)
I0121 10:20:00.421986 30601 net.cpp:157] Top shape: 16 (16)
I0121 10:20:00.422000 30601 net.cpp:165] Memory required for data: 9633984
I0121 10:20:00.422005 30601 layer_factory.hpp:77] Creating layer conv1_1a
I0121 10:20:00.422032 30601 net.cpp:106] Creating Layer conv1_1a
I0121 10:20:00.422049 30601 net.cpp:454] conv1_1a <- data
I0121 10:20:00.422056 30601 net.cpp:411] conv1_1a -> conv1_1a
I0121 10:20:00.423974 30601 net.cpp:150] Setting up conv1_1a
I0121 10:20:00.424003 30601 net.cpp:157] Top shape: 16 11 112 224 (4415488)
I0121 10:20:00.424010 30601 net.cpp:165] Memory required for data: 27295936
I0121 10:20:00.424031 30601 layer_factory.hpp:77] Creating layer conv1_1b1
I0121 10:20:00.424053 30601 net.cpp:106] Creating Layer conv1_1b1
I0121 10:20:00.424069 30601 net.cpp:454] conv1_1b1 <- conv1_1a
I0121 10:20:00.424089 30601 net.cpp:411] conv1_1b1 -> conv1_1b1
I0121 10:20:00.425056 30601 net.cpp:150] Setting up conv1_1b1
I0121 10:20:00.425082 30601 net.cpp:157] Top shape: 16 11 112 112 (2207744)
I0121 10:20:00.425087 30601 net.cpp:165] Memory required for data: 36126912
I0121 10:20:00.425112 30601 layer_factory.hpp:77] Creating layer conv1_1b2
I0121 10:20:00.425134 30601 net.cpp:106] Creating Layer conv1_1b2
I0121 10:20:00.425155 30601 net.cpp:454] conv1_1b2 <- conv1_1b1
I0121 10:20:00.425178 30601 net.cpp:411] conv1_1b2 -> conv1_1b2
I0121 10:20:00.425992 30601 net.cpp:150] Setting up conv1_1b2
I0121 10:20:00.426017 30601 net.cpp:157] Top shape: 16 64 112 112 (12845056)
I0121 10:20:00.426023 30601 net.cpp:165] Memory required for data: 87507136
I0121 10:20:00.426045 30601 layer_factory.hpp:77] Creating layer relu1_1
I0121 10:20:00.426055 30601 net.cpp:106] Creating Layer relu1_1
I0121 10:20:00.426061 30601 net.cpp:454] relu1_1 <- conv1_1b2
I0121 10:20:00.426067 30601 net.cpp:397] relu1_1 -> conv1_1b2 (in-place)
I0121 10:20:00.426324 30601 net.cpp:150] Setting up relu1_1
I0121 10:20:00.426348 30601 net.cpp:157] Top shape: 16 64 112 112 (12845056)
I0121 10:20:00.426353 30601 net.cpp:165] Memory required for data: 138887360
I0121 10:20:00.426394 30601 layer_factory.hpp:77] Creating layer conv1_1_bn
I0121 10:20:00.426403 30601 net.cpp:106] Creating Layer conv1_1_bn
I0121 10:20:00.426409 30601 net.cpp:454] conv1_1_bn <- conv1_1b2
I0121 10:20:00.426425 30601 net.cpp:411] conv1_1_bn -> conv1_1_bn
I0121 10:20:00.426643 30601 net.cpp:150] Setting up conv1_1_bn
I0121 10:20:00.426653 30601 net.cpp:157] Top shape: 16 64 112 112 (12845056)
I0121 10:20:00.426667 30601 net.cpp:165] Memory required for data: 190267584
I0121 10:20:00.426678 30601 layer_factory.hpp:77] Creating layer pool1
I0121 10:20:00.426689 30601 net.cpp:106] Creating Layer pool1
I0121 10:20:00.426694 30601 net.cpp:454] pool1 <- conv1_1_bn
I0121 10:20:00.426700 30601 net.cpp:411] pool1 -> pool1_1
I0121 10:20:00.426985 30601 net.cpp:150] Setting up pool1
I0121 10:20:00.427008 30601 net.cpp:157] Top shape: 16 64 56 56 (3211264)
I0121 10:20:00.427023 30601 net.cpp:165] Memory required for data: 203112640
I0121 10:20:00.427028 30601 layer_factory.hpp:77] Creating layer conv2_1
I0121 10:20:00.427052 30601 net.cpp:106] Creating Layer conv2_1
I0121 10:20:00.427057 30601 net.cpp:454] conv2_1 <- pool1_1
I0121 10:20:00.427065 30601 net.cpp:411] conv2_1 -> conv2_1
I0121 10:20:00.427866 30601 net.cpp:150] Setting up conv2_1
I0121 10:20:00.427882 30601 net.cpp:157] Top shape: 16 64 56 56 (3211264)
I0121 10:20:00.427901 30601 net.cpp:165] Memory required for data: 215957696
I0121 10:20:00.427918 30601 layer_factory.hpp:77] Creating layer relu2_1
I0121 10:20:00.427937 30601 net.cpp:106] Creating Layer relu2_1
I0121 10:20:00.427943 30601 net.cpp:454] relu2_1 <- conv2_1
I0121 10:20:00.427959 30601 net.cpp:397] relu2_1 -> conv2_1 (in-place)
I0121 10:20:00.428261 30601 net.cpp:150] Setting up relu2_1
I0121 10:20:00.428287 30601 net.cpp:157] Top shape: 16 64 56 56 (3211264)
I0121 10:20:00.428292 30601 net.cpp:165] Memory required for data: 228802752
I0121 10:20:00.428297 30601 layer_factory.hpp:77] Creating layer conv2_1_bn
I0121 10:20:00.428303 30601 net.cpp:106] Creating Layer conv2_1_bn
I0121 10:20:00.428308 30601 net.cpp:454] conv2_1_bn <- conv2_1
I0121 10:20:00.428329 30601 net.cpp:411] conv2_1_bn -> conv2_1_bn
I0121 10:20:00.428577 30601 net.cpp:150] Setting up conv2_1_bn
I0121 10:20:00.428586 30601 net.cpp:157] Top shape: 16 64 56 56 (3211264)
I0121 10:20:00.428601 30601 net.cpp:165] Memory required for data: 241647808
I0121 10:20:00.428622 30601 layer_factory.hpp:77] Creating layer conv3_1a
I0121 10:20:00.428642 30601 net.cpp:106] Creating Layer conv3_1a
I0121 10:20:00.428658 30601 net.cpp:454] conv3_1a <- conv2_1_bn
I0121 10:20:00.428679 30601 net.cpp:411] conv3_1a -> conv3_1a
I0121 10:20:00.429693 30601 net.cpp:150] Setting up conv3_1a
I0121 10:20:00.429718 30601 net.cpp:157] Top shape: 16 48 28 56 (1204224)
I0121 10:20:00.429723 30601 net.cpp:165] Memory required for data: 246464704
I0121 10:20:00.429744 30601 layer_factory.hpp:77] Creating layer conv3_1b1
I0121 10:20:00.429765 30601 net.cpp:106] Creating Layer conv3_1b1
I0121 10:20:00.429770 30601 net.cpp:454] conv3_1b1 <- conv3_1a
I0121 10:20:00.429791 30601 net.cpp:411] conv3_1b1 -> conv3_1b1
I0121 10:20:00.430717 30601 net.cpp:150] Setting up conv3_1b1
I0121 10:20:00.430752 30601 net.cpp:157] Top shape: 16 48 28 28 (602112)
I0121 10:20:00.430757 30601 net.cpp:165] Memory required for data: 248873152
I0121 10:20:00.430783 30601 layer_factory.hpp:77] Creating layer conv3_1b2
I0121 10:20:00.430814 30601 net.cpp:106] Creating Layer conv3_1b2
I0121 10:20:00.430820 30601 net.cpp:454] conv3_1b2 <- conv3_1b1
I0121 10:20:00.430830 30601 net.cpp:411] conv3_1b2 -> conv3_1b2
I0121 10:20:00.431782 30601 net.cpp:150] Setting up conv3_1b2
I0121 10:20:00.431807 30601 net.cpp:157] Top shape: 16 96 28 28 (1204224)
I0121 10:20:00.431813 30601 net.cpp:165] Memory required for data: 253690048
I0121 10:20:00.431833 30601 layer_factory.hpp:77] Creating layer relu3_1
I0121 10:20:00.431850 30601 net.cpp:106] Creating Layer relu3_1
I0121 10:20:00.431855 30601 net.cpp:454] relu3_1 <- conv3_1b2
I0121 10:20:00.431874 30601 net.cpp:397] relu3_1 -> conv3_1b2 (in-place)
I0121 10:20:00.432195 30601 net.cpp:150] Setting up relu3_1
I0121 10:20:00.432219 30601 net.cpp:157] Top shape: 16 96 28 28 (1204224)
I0121 10:20:00.432225 30601 net.cpp:165] Memory required for data: 258506944
I0121 10:20:00.432230 30601 layer_factory.hpp:77] Creating layer conv3_1_bn
I0121 10:20:00.432250 30601 net.cpp:106] Creating Layer conv3_1_bn
I0121 10:20:00.432255 30601 net.cpp:454] conv3_1_bn <- conv3_1b2
I0121 10:20:00.432261 30601 net.cpp:411] conv3_1_bn -> conv3_1_bn
I0121 10:20:00.432483 30601 net.cpp:150] Setting up conv3_1_bn
I0121 10:20:00.432493 30601 net.cpp:157] Top shape: 16 96 28 28 (1204224)
I0121 10:20:00.432508 30601 net.cpp:165] Memory required for data: 263323840
I0121 10:20:00.432517 30601 layer_factory.hpp:77] Creating layer conv3_2a
I0121 10:20:00.432541 30601 net.cpp:106] Creating Layer conv3_2a
I0121 10:20:00.432546 30601 net.cpp:454] conv3_2a <- conv3_1_bn
I0121 10:20:00.432555 30601 net.cpp:411] conv3_2a -> conv3_2a
I0121 10:20:00.434525 30601 net.cpp:150] Setting up conv3_2a
I0121 10:20:00.434546 30601 net.cpp:157] Top shape: 16 64 28 28 (802816)
I0121 10:20:00.434552 30601 net.cpp:165] Memory required for data: 266535104
I0121 10:20:00.434561 30601 layer_factory.hpp:77] Creating layer conv3_2b1
I0121 10:20:00.434573 30601 net.cpp:106] Creating Layer conv3_2b1
I0121 10:20:00.434581 30601 net.cpp:454] conv3_2b1 <- conv3_2a
I0121 10:20:00.434588 30601 net.cpp:411] conv3_2b1 -> conv3_2b1
I0121 10:20:00.435534 30601 net.cpp:150] Setting up conv3_2b1
I0121 10:20:00.435559 30601 net.cpp:157] Top shape: 16 64 28 28 (802816)
I0121 10:20:00.435566 30601 net.cpp:165] Memory required for data: 269746368
I0121 10:20:00.435575 30601 layer_factory.hpp:77] Creating layer conv3_2b2
I0121 10:20:00.435586 30601 net.cpp:106] Creating Layer conv3_2b2
I0121 10:20:00.435593 30601 net.cpp:454] conv3_2b2 <- conv3_2b1
I0121 10:20:00.435602 30601 net.cpp:411] conv3_2b2 -> conv3_2b2
I0121 10:20:00.436494 30601 net.cpp:150] Setting up conv3_2b2
I0121 10:20:00.436519 30601 net.cpp:157] Top shape: 16 96 28 28 (1204224)
I0121 10:20:00.436524 30601 net.cpp:165] Memory required for data: 274563264
I0121 10:20:00.436544 30601 layer_factory.hpp:77] Creating layer relu3_2
I0121 10:20:00.436563 30601 net.cpp:106] Creating Layer relu3_2
I0121 10:20:00.436568 30601 net.cpp:454] relu3_2 <- conv3_2b2
I0121 10:20:00.436586 30601 net.cpp:397] relu3_2 -> conv3_2b2 (in-place)
I0121 10:20:00.436867 30601 net.cpp:150] Setting up relu3_2
I0121 10:20:00.436890 30601 net.cpp:157] Top shape: 16 96 28 28 (1204224)
I0121 10:20:00.436895 30601 net.cpp:165] Memory required for data: 279380160
I0121 10:20:00.436913 30601 layer_factory.hpp:77] Creating layer conv3_2_bn
I0121 10:20:00.436920 30601 net.cpp:106] Creating Layer conv3_2_bn
I0121 10:20:00.436936 30601 net.cpp:454] conv3_2_bn <- conv3_2b2
I0121 10:20:00.436952 30601 net.cpp:411] conv3_2_bn -> conv3_2_bn
I0121 10:20:00.437188 30601 net.cpp:150] Setting up conv3_2_bn
I0121 10:20:00.437208 30601 net.cpp:157] Top shape: 16 96 28 28 (1204224)
I0121 10:20:00.437213 30601 net.cpp:165] Memory required for data: 284197056
I0121 10:20:00.437232 30601 layer_factory.hpp:77] Creating layer conv3_3a
I0121 10:20:00.437242 30601 net.cpp:106] Creating Layer conv3_3a
I0121 10:20:00.437247 30601 net.cpp:454] conv3_3a <- conv3_2_bn
I0121 10:20:00.437255 30601 net.cpp:411] conv3_3a -> conv3_3a
I0121 10:20:00.438204 30601 net.cpp:150] Setting up conv3_3a
I0121 10:20:00.438228 30601 net.cpp:157] Top shape: 16 48 28 28 (602112)
I0121 10:20:00.438233 30601 net.cpp:165] Memory required for data: 286605504
I0121 10:20:00.438247 30601 layer_factory.hpp:77] Creating layer conv3_3b1
I0121 10:20:00.438263 30601 net.cpp:106] Creating Layer conv3_3b1
I0121 10:20:00.438271 30601 net.cpp:454] conv3_3b1 <- conv3_3a
I0121 10:20:00.438277 30601 net.cpp:411] conv3_3b1 -> conv3_3b1
I0121 10:20:00.439122 30601 net.cpp:150] Setting up conv3_3b1
I0121 10:20:00.439147 30601 net.cpp:157] Top shape: 16 48 28 28 (602112)
I0121 10:20:00.439152 30601 net.cpp:165] Memory required for data: 289013952
I0121 10:20:00.439159 30601 layer_factory.hpp:77] Creating layer conv3_3b2
I0121 10:20:00.439218 30601 net.cpp:106] Creating Layer conv3_3b2
I0121 10:20:00.439239 30601 net.cpp:454] conv3_3b2 <- conv3_3b1
I0121 10:20:00.439246 30601 net.cpp:411] conv3_3b2 -> conv3_3b2
I0121 10:20:00.440165 30601 net.cpp:150] Setting up conv3_3b2
I0121 10:20:00.440189 30601 net.cpp:157] Top shape: 16 96 28 28 (1204224)
I0121 10:20:00.440194 30601 net.cpp:165] Memory required for data: 293830848
I0121 10:20:00.440213 30601 layer_factory.hpp:77] Creating layer relu3_3
I0121 10:20:00.440230 30601 net.cpp:106] Creating Layer relu3_3
I0121 10:20:00.440235 30601 net.cpp:454] relu3_3 <- conv3_3b2
I0121 10:20:00.440254 30601 net.cpp:397] relu3_3 -> conv3_3b2 (in-place)
I0121 10:20:00.440551 30601 net.cpp:150] Setting up relu3_3
I0121 10:20:00.440565 30601 net.cpp:157] Top shape: 16 96 28 28 (1204224)
I0121 10:20:00.440579 30601 net.cpp:165] Memory required for data: 298647744
I0121 10:20:00.440584 30601 layer_factory.hpp:77] Creating layer conv3_3_bn
I0121 10:20:00.440593 30601 net.cpp:106] Creating Layer conv3_3_bn
I0121 10:20:00.440598 30601 net.cpp:454] conv3_3_bn <- conv3_3b2
I0121 10:20:00.440604 30601 net.cpp:411] conv3_3_bn -> conv3_3_bn
I0121 10:20:00.440814 30601 net.cpp:150] Setting up conv3_3_bn
I0121 10:20:00.440824 30601 net.cpp:157] Top shape: 16 96 28 28 (1204224)
I0121 10:20:00.440839 30601 net.cpp:165] Memory required for data: 303464640
I0121 10:20:00.440846 30601 layer_factory.hpp:77] Creating layer conv3_4
I0121 10:20:00.440861 30601 net.cpp:106] Creating Layer conv3_4
I0121 10:20:00.440867 30601 net.cpp:454] conv3_4 <- conv3_3_bn
I0121 10:20:00.440875 30601 net.cpp:411] conv3_4 -> conv3_4
I0121 10:20:00.442095 30601 net.cpp:150] Setting up conv3_4
I0121 10:20:00.442121 30601 net.cpp:157] Top shape: 16 144 28 28 (1806336)
I0121 10:20:00.442127 30601 net.cpp:165] Memory required for data: 310689984
I0121 10:20:00.442147 30601 layer_factory.hpp:77] Creating layer relu3_4
I0121 10:20:00.442165 30601 net.cpp:106] Creating Layer relu3_4
I0121 10:20:00.442170 30601 net.cpp:454] relu3_4 <- conv3_4
I0121 10:20:00.442188 30601 net.cpp:397] relu3_4 -> conv3_4 (in-place)
I0121 10:20:00.442462 30601 net.cpp:150] Setting up relu3_4
I0121 10:20:00.442476 30601 net.cpp:157] Top shape: 16 144 28 28 (1806336)
I0121 10:20:00.442481 30601 net.cpp:165] Memory required for data: 317915328
I0121 10:20:00.442486 30601 layer_factory.hpp:77] Creating layer conv3_4_bn
I0121 10:20:00.442502 30601 net.cpp:106] Creating Layer conv3_4_bn
I0121 10:20:00.442507 30601 net.cpp:454] conv3_4_bn <- conv3_4
I0121 10:20:00.442525 30601 net.cpp:411] conv3_4_bn -> conv3_4_bn
I0121 10:20:00.442740 30601 net.cpp:150] Setting up conv3_4_bn
I0121 10:20:00.442749 30601 net.cpp:157] Top shape: 16 144 28 28 (1806336)
I0121 10:20:00.442754 30601 net.cpp:165] Memory required for data: 325140672
I0121 10:20:00.442777 30601 layer_factory.hpp:77] Creating layer pool3
I0121 10:20:00.442796 30601 net.cpp:106] Creating Layer pool3
I0121 10:20:00.442801 30601 net.cpp:454] pool3 <- conv3_4_bn
I0121 10:20:00.442807 30601 net.cpp:411] pool3 -> pool3
I0121 10:20:00.443131 30601 net.cpp:150] Setting up pool3
I0121 10:20:00.443145 30601 net.cpp:157] Top shape: 16 144 14 14 (451584)
I0121 10:20:00.443150 30601 net.cpp:165] Memory required for data: 326947008
I0121 10:20:00.443155 30601 layer_factory.hpp:77] Creating layer conv4_1a
I0121 10:20:00.443179 30601 net.cpp:106] Creating Layer conv4_1a
I0121 10:20:00.443195 30601 net.cpp:454] conv4_1a <- pool3
I0121 10:20:00.443213 30601 net.cpp:411] conv4_1a -> conv4_1a
I0121 10:20:00.444907 30601 net.cpp:150] Setting up conv4_1a
I0121 10:20:00.444926 30601 net.cpp:157] Top shape: 16 110 14 14 (344960)
I0121 10:20:00.444942 30601 net.cpp:165] Memory required for data: 328326848
I0121 10:20:00.444949 30601 layer_factory.hpp:77] Creating layer conv4_1b1
I0121 10:20:00.444962 30601 net.cpp:106] Creating Layer conv4_1b1
I0121 10:20:00.444968 30601 net.cpp:454] conv4_1b1 <- conv4_1a
I0121 10:20:00.444977 30601 net.cpp:411] conv4_1b1 -> conv4_1b1
I0121 10:20:00.446389 30601 net.cpp:150] Setting up conv4_1b1
I0121 10:20:00.446418 30601 net.cpp:157] Top shape: 16 110 14 14 (344960)
I0121 10:20:00.446434 30601 net.cpp:165] Memory required for data: 329706688
I0121 10:20:00.446441 30601 layer_factory.hpp:77] Creating layer conv4_1b2
I0121 10:20:00.446460 30601 net.cpp:106] Creating Layer conv4_1b2
I0121 10:20:00.446467 30601 net.cpp:454] conv4_1b2 <- conv4_1b1
I0121 10:20:00.446486 30601 net.cpp:411] conv4_1b2 -> conv4_1b2
I0121 10:20:00.447587 30601 net.cpp:150] Setting up conv4_1b2
I0121 10:20:00.447602 30601 net.cpp:157] Top shape: 16 144 14 14 (451584)
I0121 10:20:00.447620 30601 net.cpp:165] Memory required for data: 331513024
I0121 10:20:00.447644 30601 layer_factory.hpp:77] Creating layer relu4_1
I0121 10:20:00.447664 30601 net.cpp:106] Creating Layer relu4_1
I0121 10:20:00.447682 30601 net.cpp:454] relu4_1 <- conv4_1b2
I0121 10:20:00.447690 30601 net.cpp:397] relu4_1 -> conv4_1b2 (in-place)
I0121 10:20:00.447868 30601 net.cpp:150] Setting up relu4_1
I0121 10:20:00.447880 30601 net.cpp:157] Top shape: 16 144 14 14 (451584)
I0121 10:20:00.447885 30601 net.cpp:165] Memory required for data: 333319360
I0121 10:20:00.447890 30601 layer_factory.hpp:77] Creating layer conv4_1_bn
I0121 10:20:00.447899 30601 net.cpp:106] Creating Layer conv4_1_bn
I0121 10:20:00.447906 30601 net.cpp:454] conv4_1_bn <- conv4_1b2
I0121 10:20:00.447912 30601 net.cpp:411] conv4_1_bn -> conv4_1_bn
I0121 10:20:00.448168 30601 net.cpp:150] Setting up conv4_1_bn
I0121 10:20:00.448179 30601 net.cpp:157] Top shape: 16 144 14 14 (451584)
I0121 10:20:00.448192 30601 net.cpp:165] Memory required for data: 335125696
I0121 10:20:00.448201 30601 layer_factory.hpp:77] Creating layer conv4_2
I0121 10:20:00.448212 30601 net.cpp:106] Creating Layer conv4_2
I0121 10:20:00.448218 30601 net.cpp:454] conv4_2 <- conv4_1_bn
I0121 10:20:00.448226 30601 net.cpp:411] conv4_2 -> conv4_2
I0121 10:20:00.450484 30601 net.cpp:150] Setting up conv4_2
I0121 10:20:00.450512 30601 net.cpp:157] Top shape: 16 144 14 14 (451584)
I0121 10:20:00.450518 30601 net.cpp:165] Memory required for data: 336932032
I0121 10:20:00.450525 30601 layer_factory.hpp:77] Creating layer relu4_2
I0121 10:20:00.450544 30601 net.cpp:106] Creating Layer relu4_2
I0121 10:20:00.450559 30601 net.cpp:454] relu4_2 <- conv4_2
I0121 10:20:00.450567 30601 net.cpp:397] relu4_2 -> conv4_2 (in-place)
I0121 10:20:00.450839 30601 net.cpp:150] Setting up relu4_2
I0121 10:20:00.450852 30601 net.cpp:157] Top shape: 16 144 14 14 (451584)
I0121 10:20:00.450857 30601 net.cpp:165] Memory required for data: 338738368
I0121 10:20:00.450861 30601 layer_factory.hpp:77] Creating layer conv4_2_bn
I0121 10:20:00.450882 30601 net.cpp:106] Creating Layer conv4_2_bn
I0121 10:20:00.450897 30601 net.cpp:454] conv4_2_bn <- conv4_2
I0121 10:20:00.450904 30601 net.cpp:411] conv4_2_bn -> conv4_2_bn
I0121 10:20:00.451158 30601 net.cpp:150] Setting up conv4_2_bn
I0121 10:20:00.451167 30601 net.cpp:157] Top shape: 16 144 14 14 (451584)
I0121 10:20:00.451171 30601 net.cpp:165] Memory required for data: 340544704
I0121 10:20:00.451189 30601 layer_factory.hpp:77] Creating layer conv4_3
I0121 10:20:00.451202 30601 net.cpp:106] Creating Layer conv4_3
I0121 10:20:00.451208 30601 net.cpp:454] conv4_3 <- conv4_2_bn
I0121 10:20:00.451216 30601 net.cpp:411] conv4_3 -> conv4_3
I0121 10:20:00.453498 30601 net.cpp:150] Setting up conv4_3
I0121 10:20:00.453518 30601 net.cpp:157] Top shape: 16 144 14 14 (451584)
I0121 10:20:00.453523 30601 net.cpp:165] Memory required for data: 342351040
I0121 10:20:00.453544 30601 layer_factory.hpp:77] Creating layer relu4_3
I0121 10:20:00.453562 30601 net.cpp:106] Creating Layer relu4_3
I0121 10:20:00.453567 30601 net.cpp:454] relu4_3 <- conv4_3
I0121 10:20:00.453575 30601 net.cpp:397] relu4_3 -> conv4_3 (in-place)
I0121 10:20:00.453768 30601 net.cpp:150] Setting up relu4_3
I0121 10:20:00.453778 30601 net.cpp:157] Top shape: 16 144 14 14 (451584)
I0121 10:20:00.453783 30601 net.cpp:165] Memory required for data: 344157376
I0121 10:20:00.453788 30601 layer_factory.hpp:77] Creating layer conv4_3_bn
I0121 10:20:00.453830 30601 net.cpp:106] Creating Layer conv4_3_bn
I0121 10:20:00.453835 30601 net.cpp:454] conv4_3_bn <- conv4_3
I0121 10:20:00.453853 30601 net.cpp:411] conv4_3_bn -> conv4_3_bn
I0121 10:20:00.454088 30601 net.cpp:150] Setting up conv4_3_bn
I0121 10:20:00.454097 30601 net.cpp:157] Top shape: 16 144 14 14 (451584)
I0121 10:20:00.454113 30601 net.cpp:165] Memory required for data: 345963712
I0121 10:20:00.454129 30601 layer_factory.hpp:77] Creating layer conv5_1
I0121 10:20:00.454154 30601 net.cpp:106] Creating Layer conv5_1
I0121 10:20:00.454169 30601 net.cpp:454] conv5_1 <- conv4_3_bn
I0121 10:20:00.454175 30601 net.cpp:411] conv5_1 -> conv5_1
I0121 10:20:00.457226 30601 net.cpp:150] Setting up conv5_1
I0121 10:20:00.457242 30601 net.cpp:157] Top shape: 16 256 14 14 (802816)
I0121 10:20:00.457248 30601 net.cpp:165] Memory required for data: 349174976
I0121 10:20:00.457255 30601 layer_factory.hpp:77] Creating layer relu5_1
I0121 10:20:00.457262 30601 net.cpp:106] Creating Layer relu5_1
I0121 10:20:00.457267 30601 net.cpp:454] relu5_1 <- conv5_1
I0121 10:20:00.457275 30601 net.cpp:397] relu5_1 -> conv5_1 (in-place)
I0121 10:20:00.457422 30601 net.cpp:150] Setting up relu5_1
I0121 10:20:00.457434 30601 net.cpp:157] Top shape: 16 256 14 14 (802816)
I0121 10:20:00.457439 30601 net.cpp:165] Memory required for data: 352386240
I0121 10:20:00.457443 30601 layer_factory.hpp:77] Creating layer conv5_1_bn
I0121 10:20:00.457450 30601 net.cpp:106] Creating Layer conv5_1_bn
I0121 10:20:00.457454 30601 net.cpp:454] conv5_1_bn <- conv5_1
I0121 10:20:00.457460 30601 net.cpp:411] conv5_1_bn -> conv5_1_bn
I0121 10:20:00.457659 30601 net.cpp:150] Setting up conv5_1_bn
I0121 10:20:00.457669 30601 net.cpp:157] Top shape: 16 256 14 14 (802816)
I0121 10:20:00.457674 30601 net.cpp:165] Memory required for data: 355597504
I0121 10:20:00.457681 30601 layer_factory.hpp:77] Creating layer pool5_1
I0121 10:20:00.457689 30601 net.cpp:106] Creating Layer pool5_1
I0121 10:20:00.457693 30601 net.cpp:454] pool5_1 <- conv5_1_bn
I0121 10:20:00.457700 30601 net.cpp:411] pool5_1 -> pool5_1
I0121 10:20:00.457974 30601 net.cpp:150] Setting up pool5_1
I0121 10:20:00.457988 30601 net.cpp:157] Top shape: 16 256 13 13 (692224)
I0121 10:20:00.457993 30601 net.cpp:165] Memory required for data: 358366400
I0121 10:20:00.457996 30601 layer_factory.hpp:77] Creating layer conv5_2
I0121 10:20:00.458008 30601 net.cpp:106] Creating Layer conv5_2
I0121 10:20:00.458014 30601 net.cpp:454] conv5_2 <- pool5_1
I0121 10:20:00.458021 30601 net.cpp:411] conv5_2 -> conv5_2
I0121 10:20:00.459444 30601 net.cpp:150] Setting up conv5_2
I0121 10:20:00.459460 30601 net.cpp:157] Top shape: 16 384 13 13 (1038336)
I0121 10:20:00.459465 30601 net.cpp:165] Memory required for data: 362519744
I0121 10:20:00.459471 30601 layer_factory.hpp:77] Creating layer relu5_2
I0121 10:20:00.459480 30601 net.cpp:106] Creating Layer relu5_2
I0121 10:20:00.459484 30601 net.cpp:454] relu5_2 <- conv5_2
I0121 10:20:00.459491 30601 net.cpp:397] relu5_2 -> conv5_2 (in-place)
I0121 10:20:00.459638 30601 net.cpp:150] Setting up relu5_2
I0121 10:20:00.459650 30601 net.cpp:157] Top shape: 16 384 13 13 (1038336)
I0121 10:20:00.459655 30601 net.cpp:165] Memory required for data: 366673088
I0121 10:20:00.459660 30601 layer_factory.hpp:77] Creating layer conv5_2_bn
I0121 10:20:00.459666 30601 net.cpp:106] Creating Layer conv5_2_bn
I0121 10:20:00.459671 30601 net.cpp:454] conv5_2_bn <- conv5_2
I0121 10:20:00.459677 30601 net.cpp:411] conv5_2_bn -> conv5_2_bn
I0121 10:20:00.459879 30601 net.cpp:150] Setting up conv5_2_bn
I0121 10:20:00.459888 30601 net.cpp:157] Top shape: 16 384 13 13 (1038336)
I0121 10:20:00.459893 30601 net.cpp:165] Memory required for data: 370826432
I0121 10:20:00.459900 30601 layer_factory.hpp:77] Creating layer pool5_2
I0121 10:20:00.459908 30601 net.cpp:106] Creating Layer pool5_2
I0121 10:20:00.459913 30601 net.cpp:454] pool5_2 <- conv5_2_bn
I0121 10:20:00.459919 30601 net.cpp:411] pool5_2 -> pool5_2
I0121 10:20:00.460194 30601 net.cpp:150] Setting up pool5_2
I0121 10:20:00.460207 30601 net.cpp:157] Top shape: 16 384 12 12 (884736)
I0121 10:20:00.460222 30601 net.cpp:165] Memory required for data: 374365376
I0121 10:20:00.460227 30601 layer_factory.hpp:77] Creating layer conv5_3
I0121 10:20:00.460237 30601 net.cpp:106] Creating Layer conv5_3
I0121 10:20:00.460242 30601 net.cpp:454] conv5_3 <- pool5_2
I0121 10:20:00.460252 30601 net.cpp:411] conv5_3 -> conv5_3
I0121 10:20:00.462451 30601 net.cpp:150] Setting up conv5_3
I0121 10:20:00.462467 30601 net.cpp:157] Top shape: 16 512 12 12 (1179648)
I0121 10:20:00.462486 30601 net.cpp:165] Memory required for data: 379083968
I0121 10:20:00.462502 30601 layer_factory.hpp:77] Creating layer relu5_3
I0121 10:20:00.462510 30601 net.cpp:106] Creating Layer relu5_3
I0121 10:20:00.462527 30601 net.cpp:454] relu5_3 <- conv5_3
I0121 10:20:00.462532 30601 net.cpp:397] relu5_3 -> conv5_3 (in-place)
I0121 10:20:00.462729 30601 net.cpp:150] Setting up relu5_3
I0121 10:20:00.462740 30601 net.cpp:157] Top shape: 16 512 12 12 (1179648)
I0121 10:20:00.462744 30601 net.cpp:165] Memory required for data: 383802560
I0121 10:20:00.462749 30601 layer_factory.hpp:77] Creating layer conv5_3_bn
I0121 10:20:00.462754 30601 net.cpp:106] Creating Layer conv5_3_bn
I0121 10:20:00.462770 30601 net.cpp:454] conv5_3_bn <- conv5_3
I0121 10:20:00.462777 30601 net.cpp:411] conv5_3_bn -> conv5_3_bn
I0121 10:20:00.463043 30601 net.cpp:150] Setting up conv5_3_bn
I0121 10:20:00.463052 30601 net.cpp:157] Top shape: 16 512 12 12 (1179648)
I0121 10:20:00.463066 30601 net.cpp:165] Memory required for data: 388521152
I0121 10:20:00.463074 30601 layer_factory.hpp:77] Creating layer pool5_3
I0121 10:20:00.463083 30601 net.cpp:106] Creating Layer pool5_3
I0121 10:20:00.463088 30601 net.cpp:454] pool5_3 <- conv5_3_bn
I0121 10:20:00.463094 30601 net.cpp:411] pool5_3 -> pool5_3
I0121 10:20:00.463426 30601 net.cpp:150] Setting up pool5_3
I0121 10:20:00.463440 30601 net.cpp:157] Top shape: 16 512 6 6 (294912)
I0121 10:20:00.463444 30601 net.cpp:165] Memory required for data: 389700800
I0121 10:20:00.463449 30601 layer_factory.hpp:77] Creating layer fc6
I0121 10:20:00.463471 30601 net.cpp:106] Creating Layer fc6
I0121 10:20:00.463487 30601 net.cpp:454] fc6 <- pool5_3
I0121 10:20:00.463495 30601 net.cpp:411] fc6 -> fc6
I0121 10:20:00.699707 30601 net.cpp:150] Setting up fc6
I0121 10:20:00.699743 30601 net.cpp:157] Top shape: 16 2048 (32768)
I0121 10:20:00.699750 30601 net.cpp:165] Memory required for data: 389831872
I0121 10:20:00.699760 30601 layer_factory.hpp:77] Creating layer relu6
I0121 10:20:00.699784 30601 net.cpp:106] Creating Layer relu6
I0121 10:20:00.699800 30601 net.cpp:454] relu6 <- fc6
I0121 10:20:00.699808 30601 net.cpp:397] relu6 -> fc6 (in-place)
I0121 10:20:00.700101 30601 net.cpp:150] Setting up relu6
I0121 10:20:00.700115 30601 net.cpp:157] Top shape: 16 2048 (32768)
I0121 10:20:00.700120 30601 net.cpp:165] Memory required for data: 389962944
I0121 10:20:00.700125 30601 layer_factory.hpp:77] Creating layer fc6_bn
I0121 10:20:00.700132 30601 net.cpp:106] Creating Layer fc6_bn
I0121 10:20:00.700148 30601 net.cpp:454] fc6_bn <- fc6
I0121 10:20:00.700155 30601 net.cpp:411] fc6_bn -> fc6_bn
I0121 10:20:00.700454 30601 net.cpp:150] Setting up fc6_bn
I0121 10:20:00.700464 30601 net.cpp:157] Top shape: 16 2048 (32768)
I0121 10:20:00.700469 30601 net.cpp:165] Memory required for data: 390094016
I0121 10:20:00.700476 30601 layer_factory.hpp:77] Creating layer fc7
I0121 10:20:00.700497 30601 net.cpp:106] Creating Layer fc7
I0121 10:20:00.700512 30601 net.cpp:454] fc7 <- fc6_bn
I0121 10:20:00.700518 30601 net.cpp:411] fc7 -> fc7
I0121 10:20:00.727165 30601 net.cpp:150] Setting up fc7
I0121 10:20:00.727201 30601 net.cpp:157] Top shape: 16 2048 (32768)
I0121 10:20:00.727208 30601 net.cpp:165] Memory required for data: 390225088
I0121 10:20:00.727229 30601 layer_factory.hpp:77] Creating layer relu7
I0121 10:20:00.727239 30601 net.cpp:106] Creating Layer relu7
I0121 10:20:00.727257 30601 net.cpp:454] relu7 <- fc7
I0121 10:20:00.727264 30601 net.cpp:397] relu7 -> fc7 (in-place)
I0121 10:20:00.727743 30601 net.cpp:150] Setting up relu7
I0121 10:20:00.727771 30601 net.cpp:157] Top shape: 16 2048 (32768)
I0121 10:20:00.727777 30601 net.cpp:165] Memory required for data: 390356160
I0121 10:20:00.727782 30601 layer_factory.hpp:77] Creating layer fc7_bn
I0121 10:20:00.727800 30601 net.cpp:106] Creating Layer fc7_bn
I0121 10:20:00.727807 30601 net.cpp:454] fc7_bn <- fc7
I0121 10:20:00.727823 30601 net.cpp:411] fc7_bn -> fc7_bn
I0121 10:20:00.728116 30601 net.cpp:150] Setting up fc7_bn
I0121 10:20:00.728126 30601 net.cpp:157] Top shape: 16 2048 (32768)
I0121 10:20:00.728130 30601 net.cpp:165] Memory required for data: 390487232
I0121 10:20:00.728138 30601 layer_factory.hpp:77] Creating layer fc8
I0121 10:20:00.728158 30601 net.cpp:106] Creating Layer fc8
I0121 10:20:00.728163 30601 net.cpp:454] fc8 <- fc7_bn
I0121 10:20:00.728170 30601 net.cpp:411] fc8 -> fc8
I0121 10:20:00.741462 30601 net.cpp:150] Setting up fc8
I0121 10:20:00.741493 30601 net.cpp:157] Top shape: 16 1000 (16000)
I0121 10:20:00.741498 30601 net.cpp:165] Memory required for data: 390551232
I0121 10:20:00.741508 30601 layer_factory.hpp:77] Creating layer fc8_fc8_0_split
I0121 10:20:00.741528 30601 net.cpp:106] Creating Layer fc8_fc8_0_split
I0121 10:20:00.741534 30601 net.cpp:454] fc8_fc8_0_split <- fc8
I0121 10:20:00.741551 30601 net.cpp:411] fc8_fc8_0_split -> fc8_fc8_0_split_0
I0121 10:20:00.741560 30601 net.cpp:411] fc8_fc8_0_split -> fc8_fc8_0_split_1
I0121 10:20:00.741644 30601 net.cpp:150] Setting up fc8_fc8_0_split
I0121 10:20:00.741652 30601 net.cpp:157] Top shape: 16 1000 (16000)
I0121 10:20:00.741657 30601 net.cpp:157] Top shape: 16 1000 (16000)
I0121 10:20:00.741662 30601 net.cpp:165] Memory required for data: 390679232
I0121 10:20:00.741675 30601 layer_factory.hpp:77] Creating layer accuracy
I0121 10:20:00.741683 30601 net.cpp:106] Creating Layer accuracy
I0121 10:20:00.741698 30601 net.cpp:454] accuracy <- fc8_fc8_0_split_0
I0121 10:20:00.741703 30601 net.cpp:454] accuracy <- label_data_1_split_0
I0121 10:20:00.741724 30601 net.cpp:411] accuracy -> accuracy
…
