…
I0119 15:36:42.116847 16385 net.cpp:322] The NetState phase (0) differed from the phase (1) specified by a rule in layer accuracy
I0119 15:36:42.117353 16385 net.cpp:49] Initializing net from parameters: 
name: "PVA-Net"
state {
  phase: TRAIN
}
layer {
  name: "data"
  type: "Data"
  top: "data"
  top: "label"
  include {
    phase: TRAIN
  }
  transform_param {
    mirror: true
    crop_size: 224
    mean_value: 104
    mean_value: 117
    mean_value: 123
  }
  data_param {
    source: "data/imagenet/ilsvrc12_train_lmdb"
    batch_size: 40
    backend: LMDB
  }
}
layer {
  name: "conv1_1a"
  type: "Convolution"
  bottom: "data"
  top: "conv1_1a"
  param {
    lr_mult: 0
    decay_mult: 0
  }
  param {
    lr_mult: 0
    decay_mult: 0
  }
  convolution_param {
    num_output: 11
    weight_filler {
      type: "xavier"
      std: 0.1
    }
    bias_filler {
      type: "constant"
      value: 0.1
    }
    pad_h: 3
    pad_w: 0
    kernel_h: 7
    kernel_w: 1
    stride_h: 2
    stride_w: 1
  }
}
layer {
  name: "conv1_1b1"
  type: "Convolution"
  bottom: "conv1_1a"
  top: "conv1_1b1"
  param {
    lr_mult: 0
    decay_mult: 0
  }
  param {
    lr_mult: 0
    decay_mult: 0
  }
  convolution_param {
    num_output: 11
    weight_filler {
      type: "xavier"
      std: 0.1
    }
    bias_filler {
      type: "constant"
      value: 0.1
    }
    pad_h: 0
    pad_w: 3
    kernel_h: 1
    kernel_w: 7
    stride_h: 1
    stride_w: 2
  }
}
layer {
  name: "conv1_1b2"
  type: "Convolution"
  bottom: "conv1_1b1"
  top: "conv1_1b2"
  param {
    lr_mult: 0
    decay_mult: 0
  }
  param {
    lr_mult: 0
    decay_mult: 0
  }
  convolution_param {
    num_output: 64
    pad: 0
    kernel_size: 1
    stride: 1
    weight_filler {
      type: "xavier"
      std: 0.1
    }
    bias_filler {
      type: "constant"
      value: 0.1
    }
  }
}
layer {
  name: "relu1_1"
  type: "ReLU"
  bottom: "conv1_1b2"
  top: "conv1_1b2"
}
layer {
  name: "conv1_1_bn"
  type: "BatchNorm"
  bottom: "conv1_1b2"
  top: "conv1_1_bn"
  param {
    lr_mult: 0
    decay_mult: 0
  }
  param {
    lr_mult: 0
    decay_mult: 0
  }
  param {
    lr_mult: 0
    decay_mult: 0
  }
}
layer {
  name: "pool1"
  type: "Pooling"
  bottom: "conv1_1_bn"
  top: "pool1_1"
  pooling_param {
    pool: MAX
    kernel_size: 3
    stride: 2
  }
}
layer {
  name: "conv2_1"
  type: "Convolution"
  bottom: "pool1_1"
  top: "conv2_1"
  param {
    lr_mult: 0
    decay_mult: 0
  }
  param {
    lr_mult: 0
    decay_mult: 0
  }
  convolution_param {
    num_output: 64
    pad: 0
    kernel_size: 1
    stride: 1
    weight_filler {
      type: "xavier"
      std: 0.1
    }
    bias_filler {
      type: "constant"
      value: 0.1
    }
  }
}
layer {
  name: "relu2_1"
  type: "ReLU"
  bottom: "conv2_1"
  top: "conv2_1"
}
layer {
  name: "conv2_1_bn"
  type: "BatchNorm"
  bottom: "conv2_1"
  top: "conv2_1_bn"
  param {
    lr_mult: 0
    decay_mult: 0
  }
  param {
    lr_mult: 0
    decay_mult: 0
  }
  param {
    lr_mult: 0
    decay_mult: 0
  }
}
layer {
  name: "conv3_1a"
  type: "Convolution"
  bottom: "conv2_1_bn"
  top: "conv3_1a"
  param {
    lr_mult: 0
    decay_mult: 0
  }
  param {
    lr_mult: 0
    decay_mult: 0
  }
  convolution_param {
    num_output: 48
    weight_filler {
      type: "xavier"
    }
    bias_filler {
      type: "constant"
      value: 0.1
    }
    pad_h: 2
    pad_w: 0
    kernel_h: 5
    kernel_w: 1
    stride_h: 2
    stride_w: 1
  }
}
layer {
  name: "conv3_1b1"
  type: "Convolution"
  bottom: "conv3_1a"
  top: "conv3_1b1"
  param {
    lr_mult: 0
    decay_mult: 0
  }
  param {
    lr_mult: 0
    decay_mult: 0
  }
  convolution_param {
    num_output: 48
    weight_filler {
      type: "xavier"
    }
    bias_filler {
      type: "constant"
      value: 0.1
    }
    pad_h: 0
    pad_w: 2
    kernel_h: 1
    kernel_w: 5
    stride_h: 1
    stride_w: 2
  }
}
layer {
  name: "conv3_1b2"
  type: "Convolution"
  bottom: "conv3_1b1"
  top: "conv3_1b2"
  param {
    lr_mult: 0
    decay_mult: 0
  }
  param {
    lr_mult: 0
    decay_mult: 0
  }
  convolution_param {
    num_output: 96
    pad: 0
    kernel_size: 1
    stride: 1
    weight_filler {
      type: "xavier"
    }
    bias_filler {
      type: "constant"
      value: 0.1
    }
  }
}
layer {
  name: "relu3_1"
  type: "ReLU"
  bottom: "conv3_1b2"
  top: "conv3_1b2"
}
layer {
  name: "conv3_1_bn"
  type: "BatchNorm"
  bottom: "conv3_1b2"
  top: "conv3_1_bn"
  param {
    lr_mult: 0
    decay_mult: 0
  }
  param {
    lr_mult: 0
    decay_mult: 0
  }
  param {
    lr_mult: 0
    decay_mult: 0
  }
}
layer {
  name: "conv3_2a"
  type: "Convolution"
  bottom: "conv3_1_bn"
  top: "conv3_2a"
  param {
    lr_mult: 0
    decay_mult: 0
  }
  param {
    lr_mult: 0
    decay_mult: 0
  }
  convolution_param {
    num_output: 64
    weight_filler {
      type: "xavier"
    }
    bias_filler {
      type: "constant"
      value: 0.1
    }
    pad_h: 1
    pad_w: 0
    kernel_h: 3
    kernel_w: 1
    stride_h: 1
    stride_w: 1
  }
}
layer {
  name: "conv3_2b1"
  type: "Convolution"
  bottom: "conv3_2a"
  top: "conv3_2b1"
  param {
    lr_mult: 0
    decay_mult: 0
  }
  param {
    lr_mult: 0
    decay_mult: 0
  }
  convolution_param {
    num_output: 64
    weight_filler {
      type: "xavier"
    }
    bias_filler {
      type: "constant"
      value: 0.1
    }
    pad_h: 0
    pad_w: 1
    kernel_h: 1
    kernel_w: 3
    stride_h: 1
    stride_w: 1
  }
}
layer {
  name: "conv3_2b2"
  type: "Convolution"
  bottom: "conv3_2b1"
  top: "conv3_2b2"
  param {
    lr_mult: 0
    decay_mult: 0
  }
  param {
    lr_mult: 0
    decay_mult: 0
  }
  convolution_param {
    num_output: 96
    pad: 0
    kernel_size: 1
    stride: 1
    weight_filler {
      type: "xavier"
    }
    bias_filler {
      type: "constant"
      value: 0.1
    }
  }
}
layer {
  name: "relu3_2"
  type: "ReLU"
  bottom: "conv3_2b2"
  top: "conv3_2b2"
}
layer {
  name: "conv3_2_bn"
  type: "BatchNorm"
  bottom: "conv3_2b2"
  top: "conv3_2_bn"
  param {
    lr_mult: 0
    decay_mult: 0
  }
  param {
    lr_mult: 0
    decay_mult: 0
  }
  param {
    lr_mult: 0
    decay_mult: 0
  }
}
layer {
  name: "conv3_3a"
  type: "Convolution"
  bottom: "conv3_2_bn"
  top: "conv3_3a"
  param {
    lr_mult: 0
    decay_mult: 0
  }
  param {
    lr_mult: 0
    decay_mult: 0
  }
  convolution_param {
    num_output: 48
    weight_filler {
      type: "xavier"
    }
    bias_filler {
      type: "constant"
      value: 0.1
    }
    pad_h: 1
    pad_w: 0
    kernel_h: 3
    kernel_w: 1
    stride_h: 1
    stride_w: 1
  }
}
layer {
  name: "conv3_3b1"
  type: "Convolution"
  bottom: "conv3_3a"
  top: "conv3_3b1"
  param {
    lr_mult: 0
    decay_mult: 0
  }
  param {
    lr_mult: 0
    decay_mult: 0
  }
  convolution_param {
    num_output: 48
    weight_filler {
      type: "xavier"
    }
    bias_filler {
      type: "constant"
      value: 0.1
    }
    pad_h: 0
    pad_w: 1
    kernel_h: 1
    kernel_w: 3
    stride_h: 1
    stride_w: 1
  }
}
layer {
  name: "conv3_3b2"
  type: "Convolution"
  bottom: "conv3_3b1"
  top: "conv3_3b2"
  param {
    lr_mult: 0
    decay_mult: 0
  }
  param {
    lr_mult: 0
    decay_mult: 0
  }
  convolution_param {
    num_output: 96
    pad: 0
    kernel_size: 1
    stride: 1
    weight_filler {
      type: "xavier"
    }
    bias_filler {
      type: "constant"
      value: 0.1
    }
  }
}
layer {
  name: "relu3_3"
  type: "ReLU"
  bottom: "conv3_3b2"
  top: "conv3_3b2"
}
layer {
  name: "conv3_3_bn"
  type: "BatchNorm"
  bottom: "conv3_3b2"
  top: "conv3_3_bn"
  param {
    lr_mult: 0
    decay_mult: 0
  }
  param {
    lr_mult: 0
    decay_mult: 0
  }
  param {
    lr_mult: 0
    decay_mult: 0
  }
}
layer {
  name: "conv3_4"
  type: "Convolution"
  bottom: "conv3_3_bn"
  top: "conv3_4"
  param {
    lr_mult: 0
    decay_mult: 0
  }
  param {
    lr_mult: 0
    decay_mult: 0
  }
  convolution_param {
    num_output: 144
    pad: 0
    kernel_size: 1
    stride: 1
    weight_filler {
      type: "xavier"
    }
    bias_filler {
      type: "constant"
      value: 0.1
    }
  }
}
layer {
  name: "relu3_4"
  type: "ReLU"
  bottom: "conv3_4"
  top: "conv3_4"
}
layer {
  name: "conv3_4_bn"
  type: "BatchNorm"
  bottom: "conv3_4"
  top: "conv3_4_bn"
  param {
    lr_mult: 0
    decay_mult: 0
  }
  param {
    lr_mult: 0
    decay_mult: 0
  }
  param {
    lr_mult: 0
    decay_mult: 0
  }
}
layer {
  name: "pool3"
  type: "Pooling"
  bottom: "conv3_4_bn"
  top: "pool3"
  pooling_param {
    pool: MAX
    kernel_size: 2
    stride: 2
  }
}
layer {
  name: "conv4_1a"
  type: "Convolution"
  bottom: "pool3"
  top: "conv4_1a"
  param {
    lr_mult: 0
    decay_mult: 0
  }
  param {
    lr_mult: 0
    decay_mult: 0
  }
  convolution_param {
    num_output: 110
    weight_filler {
      type: "xavier"
    }
    bias_filler {
      type: "constant"
      value: 0.1
    }
    pad_h: 1
    pad_w: 0
    kernel_h: 3
    kernel_w: 1
    stride_h: 1
    stride_w: 1
  }
}
layer {
  name: "conv4_1b1"
  type: "Convolution"
  bottom: "conv4_1a"
  top: "conv4_1b1"
  param {
    lr_mult: 0
    decay_mult: 0
  }
  param {
    lr_mult: 0
    decay_mult: 0
  }
  convolution_param {
    num_output: 110
    weight_filler {
      type: "xavier"
    }
    bias_filler {
      type: "constant"
      value: 0.1
    }
    pad_h: 0
    pad_w: 1
    kernel_h: 1
    kernel_w: 3
    stride_h: 1
    stride_w: 1
  }
}
layer {
  name: "conv4_1b2"
  type: "Convolution"
  bottom: "conv4_1b1"
  top: "conv4_1b2"
  param {
    lr_mult: 0
    decay_mult: 0
  }
  param {
    lr_mult: 0
    decay_mult: 0
  }
  convolution_param {
    num_output: 144
    pad: 0
    kernel_size: 1
    stride: 1
    weight_filler {
      type: "xavier"
    }
    bias_filler {
      type: "constant"
      value: 0.1
    }
  }
}
layer {
  name: "relu4_1"
  type: "ReLU"
  bottom: "conv4_1b2"
  top: "conv4_1b2"
}
layer {
  name: "conv4_1_bn"
  type: "BatchNorm"
  bottom: "conv4_1b2"
  top: "conv4_1_bn"
}
layer {
  name: "conv4_2"
  type: "Convolution"
  bottom: "conv4_1_bn"
  top: "conv4_2"
  param {
    lr_mult: 1
    decay_mult: 1
  }
  param {
    lr_mult: 2
    decay_mult: 0
  }
  convolution_param {
    num_output: 144
    pad: 1
    kernel_size: 3
    stride: 1
    weight_filler {
      type: "xavier"
    }
    bias_filler {
      type: "constant"
      value: 0.1
    }
  }
}
layer {
  name: "relu4_2"
  type: "ReLU"
  bottom: "conv4_2"
  top: "conv4_2"
}
layer {
  name: "conv4_2_bn"
  type: "BatchNorm"
  bottom: "conv4_2"
  top: "conv4_2_bn"
}
layer {
  name: "conv4_3"
  type: "Convolution"
  bottom: "conv4_2_bn"
  top: "conv4_3"
  param {
    lr_mult: 1
    decay_mult: 1
  }
  param {
    lr_mult: 2
    decay_mult: 0
  }
  convolution_param {
    num_output: 144
    pad: 1
    kernel_size: 3
    stride: 1
    weight_filler {
      type: "xavier"
    }
    bias_filler {
      type: "constant"
      value: 0.1
    }
  }
}
layer {
  name: "relu4_3"
  type: "ReLU"
  bottom: "conv4_3"
  top: "conv4_3"
}
layer {
  name: "conv4_3_bn"
  type: "BatchNorm"
  bottom: "conv4_3"
  top: "conv4_3_bn"
}
layer {
  name: "conv5_1"
  type: "Convolution"
  bottom: "conv4_3_bn"
  top: "conv5_1"
  param {
    lr_mult: 1
    decay_mult: 1
  }
  param {
    lr_mult: 2
    decay_mult: 0
  }
  convolution_param {
    num_output: 256
    pad: 1
    kernel_size: 3
    stride: 1
    weight_filler {
      type: "xavier"
    }
    bias_filler {
      type: "constant"
      value: 0.1
    }
  }
}
layer {
  name: "relu5_1"
  type: "ReLU"
  bottom: "conv5_1"
  top: "conv5_1"
}
layer {
  name: "conv5_1_bn"
  type: "BatchNorm"
  bottom: "conv5_1"
  top: "conv5_1_bn"
}
layer {
  name: "pool5_1"
  type: "Pooling"
  bottom: "conv5_1_bn"
  top: "pool5_1"
  pooling_param {
    pool: MAX
    kernel_size: 2
    stride: 1
  }
}
layer {
  name: "conv5_2"
  type: "Convolution"
  bottom: "pool5_1"
  top: "conv5_2"
  param {
    lr_mult: 1
    decay_mult: 1
  }
  param {
    lr_mult: 2
    decay_mult: 0
  }
  convolution_param {
    num_output: 384
    pad: 0
    kernel_size: 1
    stride: 1
    weight_filler {
      type: "xavier"
    }
    bias_filler {
      type: "constant"
      value: 0.1
    }
  }
}
layer {
  name: "relu5_2"
  type: "ReLU"
  bottom: "conv5_2"
  top: "conv5_2"
}
layer {
  name: "conv5_2_bn"
  type: "BatchNorm"
  bottom: "conv5_2"
  top: "conv5_2_bn"
}
layer {
  name: "pool5_2"
  type: "Pooling"
  bottom: "conv5_2_bn"
  top: "pool5_2"
  pooling_param {
    pool: MAX
    kernel_size: 2
    stride: 1
  }
}
layer {
  name: "conv5_3"
  type: "Convolution"
  bottom: "pool5_2"
  top: "conv5_3"
  param {
    lr_mult: 1
    decay_mult: 1
  }
  param {
    lr_mult: 2
    decay_mult: 0
  }
  convolution_param {
    num_output: 512
    pad: 0
    kernel_size: 1
    stride: 1
    weight_filler {
      type: "xavier"
    }
    bias_filler {
      type: "constant"
      value: 0.1
    }
  }
}
layer {
  name: "relu5_3"
  type: "ReLU"
  bottom: "conv5_3"
  top: "conv5_3"
}
layer {
  name: "conv5_3_bn"
  type: "BatchNorm"
  bottom: "conv5_3"
  top: "conv5_3_bn"
}
layer {
  name: "pool5_3"
  type: "Pooling"
  bottom: "conv5_3_bn"
  top: "pool5_3"
  pooling_param {
    pool: MAX
    kernel_size: 2
    stride: 2
  }
}
layer {
  name: "fc6"
  type: "InnerProduct"
  bottom: "pool5_3"
  top: "fc6"
  param {
    lr_mult: 1
    decay_mult: 1
  }
  param {
    lr_mult: 2
    decay_mult: 0
  }
  inner_product_param {
    num_output: 2048
    weight_filler {
      type: "xavier"
      std: 0.1
    }
    bias_filler {
      type: "constant"
      value: 0.1
    }
  }
}
layer {
  name: "relu6"
  type: "ReLU"
  bottom: "fc6"
  top: "fc6"
}
layer {
  name: "fc6_bn"
  type: "BatchNorm"
  bottom: "fc6"
  top: "fc6_bn"
}
layer {
  name: "fc7"
  type: "InnerProduct"
  bottom: "fc6_bn"
  top: "fc7"
  param {
    lr_mult: 1
    decay_mult: 1
  }
  param {
    lr_mult: 2
    decay_mult: 0
  }
  inner_product_param {
    num_output: 2048
    weight_filler {
      type: "xavier"
      std: 0.1
    }
    bias_filler {
      type: "constant"
      value: 0.1
    }
  }
}
layer {
  name: "relu7"
  type: "ReLU"
  bottom: "fc7"
  top: "fc7"
}
layer {
  name: "fc7_bn"
  type: "BatchNorm"
  bottom: "fc7"
  top: "fc7_bn"
}
layer {
  name: "fc8"
  type: "InnerProduct"
  bottom: "fc7_bn"
  top: "fc8"
  param {
    lr_mult: 1
    decay_mult: 1
  }
  param {
    lr_mult: 2
    decay_mult: 0
  }
  inner_product_param {
    num_output: 1000
    weight_filler {
      type: "xavier"
      std: 0.1
    }
    bias_filler {
      type: "constant"
      value: 0.1
    }
  }
}
layer {
  name: "loss"
  type: "SoftmaxWithLoss"
  bottom: "fc8"
  bottom: "label"
  top: "loss"
}
I0119 15:36:42.117666 16385 layer_factory.hpp:77] Creating layer data
I0119 15:36:42.118235 16385 net.cpp:106] Creating Layer data
I0119 15:36:42.118259 16385 net.cpp:411] data -> data
I0119 15:36:42.118305 16385 net.cpp:411] data -> label
I0119 15:36:42.118911 16394 db_lmdb.cpp:38] Opened lmdb data/imagenet/ilsvrc12_train_lmdb
I0119 15:36:42.125929 16385 data_layer.cpp:41] output data size: 40,3,224,224
I0119 15:36:42.156257 16385 net.cpp:150] Setting up data
I0119 15:36:42.156307 16385 net.cpp:157] Top shape: 40 3 224 224 (6021120)
I0119 15:36:42.156316 16385 net.cpp:157] Top shape: 40 (40)
I0119 15:36:42.156329 16385 net.cpp:165] Memory required for data: 24084640
I0119 15:36:42.156340 16385 layer_factory.hpp:77] Creating layer conv1_1a
I0119 15:36:42.156373 16385 net.cpp:106] Creating Layer conv1_1a
I0119 15:36:42.156380 16385 net.cpp:454] conv1_1a <- data
I0119 15:36:42.156404 16385 net.cpp:411] conv1_1a -> conv1_1a
I0119 15:36:42.274505 16385 net.cpp:150] Setting up conv1_1a
I0119 15:36:42.274574 16385 net.cpp:157] Top shape: 40 11 112 224 (11038720)
I0119 15:36:42.274621 16385 net.cpp:165] Memory required for data: 68239520
I0119 15:36:42.274649 16385 layer_factory.hpp:77] Creating layer conv1_1b1
I0119 15:36:42.274685 16385 net.cpp:106] Creating Layer conv1_1b1
I0119 15:36:42.274703 16385 net.cpp:454] conv1_1b1 <- conv1_1a
I0119 15:36:42.274713 16385 net.cpp:411] conv1_1b1 -> conv1_1b1
I0119 15:36:42.276042 16385 net.cpp:150] Setting up conv1_1b1
I0119 15:36:42.276058 16385 net.cpp:157] Top shape: 40 11 112 112 (5519360)
I0119 15:36:42.276064 16385 net.cpp:165] Memory required for data: 90316960
I0119 15:36:42.276074 16385 layer_factory.hpp:77] Creating layer conv1_1b2
I0119 15:36:42.276095 16385 net.cpp:106] Creating Layer conv1_1b2
I0119 15:36:42.276111 16385 net.cpp:454] conv1_1b2 <- conv1_1b1
I0119 15:36:42.276119 16385 net.cpp:411] conv1_1b2 -> conv1_1b2
I0119 15:36:42.276844 16385 net.cpp:150] Setting up conv1_1b2
I0119 15:36:42.276859 16385 net.cpp:157] Top shape: 40 64 112 112 (32112640)
I0119 15:36:42.276865 16385 net.cpp:165] Memory required for data: 218767520
I0119 15:36:42.276873 16385 layer_factory.hpp:77] Creating layer relu1_1
I0119 15:36:42.276893 16385 net.cpp:106] Creating Layer relu1_1
I0119 15:36:42.276907 16385 net.cpp:454] relu1_1 <- conv1_1b2
I0119 15:36:42.276916 16385 net.cpp:397] relu1_1 -> conv1_1b2 (in-place)
I0119 15:36:42.277190 16385 net.cpp:150] Setting up relu1_1
I0119 15:36:42.277204 16385 net.cpp:157] Top shape: 40 64 112 112 (32112640)
I0119 15:36:42.277209 16385 net.cpp:165] Memory required for data: 347218080
I0119 15:36:42.277214 16385 layer_factory.hpp:77] Creating layer conv1_1_bn
I0119 15:36:42.277235 16385 net.cpp:106] Creating Layer conv1_1_bn
I0119 15:36:42.277241 16385 net.cpp:454] conv1_1_bn <- conv1_1b2
I0119 15:36:42.277257 16385 net.cpp:411] conv1_1_bn -> conv1_1_bn
I0119 15:36:42.277477 16385 net.cpp:150] Setting up conv1_1_bn
I0119 15:36:42.277485 16385 net.cpp:157] Top shape: 40 64 112 112 (32112640)
I0119 15:36:42.277489 16385 net.cpp:165] Memory required for data: 475668640
I0119 15:36:42.277499 16385 layer_factory.hpp:77] Creating layer pool1
I0119 15:36:42.277518 16385 net.cpp:106] Creating Layer pool1
I0119 15:36:42.277523 16385 net.cpp:454] pool1 <- conv1_1_bn
I0119 15:36:42.277539 16385 net.cpp:411] pool1 -> pool1_1
I0119 15:36:42.277748 16385 net.cpp:150] Setting up pool1
I0119 15:36:42.277760 16385 net.cpp:157] Top shape: 40 64 56 56 (8028160)
I0119 15:36:42.277776 16385 net.cpp:165] Memory required for data: 507781280
I0119 15:36:42.277781 16385 layer_factory.hpp:77] Creating layer conv2_1
I0119 15:36:42.277793 16385 net.cpp:106] Creating Layer conv2_1
I0119 15:36:42.277798 16385 net.cpp:454] conv2_1 <- pool1_1
I0119 15:36:42.277806 16385 net.cpp:411] conv2_1 -> conv2_1
I0119 15:36:42.278859 16385 net.cpp:150] Setting up conv2_1
I0119 15:36:42.278874 16385 net.cpp:157] Top shape: 40 64 56 56 (8028160)
I0119 15:36:42.278880 16385 net.cpp:165] Memory required for data: 539893920
I0119 15:36:42.278887 16385 layer_factory.hpp:77] Creating layer relu2_1
I0119 15:36:42.278895 16385 net.cpp:106] Creating Layer relu2_1
I0119 15:36:42.278900 16385 net.cpp:454] relu2_1 <- conv2_1
I0119 15:36:42.278906 16385 net.cpp:397] relu2_1 -> conv2_1 (in-place)
I0119 15:36:42.279124 16385 net.cpp:150] Setting up relu2_1
I0119 15:36:42.279137 16385 net.cpp:157] Top shape: 40 64 56 56 (8028160)
I0119 15:36:42.279152 16385 net.cpp:165] Memory required for data: 572006560
I0119 15:36:42.279157 16385 layer_factory.hpp:77] Creating layer conv2_1_bn
I0119 15:36:42.279168 16385 net.cpp:106] Creating Layer conv2_1_bn
I0119 15:36:42.279175 16385 net.cpp:454] conv2_1_bn <- conv2_1
I0119 15:36:42.279191 16385 net.cpp:411] conv2_1_bn -> conv2_1_bn
I0119 15:36:42.279402 16385 net.cpp:150] Setting up conv2_1_bn
I0119 15:36:42.279412 16385 net.cpp:157] Top shape: 40 64 56 56 (8028160)
I0119 15:36:42.279428 16385 net.cpp:165] Memory required for data: 604119200
I0119 15:36:42.279435 16385 layer_factory.hpp:77] Creating layer conv3_1a
I0119 15:36:42.279445 16385 net.cpp:106] Creating Layer conv3_1a
I0119 15:36:42.279450 16385 net.cpp:454] conv3_1a <- conv2_1_bn
I0119 15:36:42.279470 16385 net.cpp:411] conv3_1a -> conv3_1a
I0119 15:36:42.280223 16385 net.cpp:150] Setting up conv3_1a
I0119 15:36:42.280248 16385 net.cpp:157] Top shape: 40 48 28 56 (3010560)
I0119 15:36:42.280254 16385 net.cpp:165] Memory required for data: 616161440
I0119 15:36:42.280262 16385 layer_factory.hpp:77] Creating layer conv3_1b1
I0119 15:36:42.280272 16385 net.cpp:106] Creating Layer conv3_1b1
I0119 15:36:42.280288 16385 net.cpp:454] conv3_1b1 <- conv3_1a
I0119 15:36:42.280306 16385 net.cpp:411] conv3_1b1 -> conv3_1b1
I0119 15:36:42.283468 16385 net.cpp:150] Setting up conv3_1b1
I0119 15:36:42.283493 16385 net.cpp:157] Top shape: 40 48 28 28 (1505280)
I0119 15:36:42.283498 16385 net.cpp:165] Memory required for data: 622182560
I0119 15:36:42.283519 16385 layer_factory.hpp:77] Creating layer conv3_1b2
I0119 15:36:42.283542 16385 net.cpp:106] Creating Layer conv3_1b2
I0119 15:36:42.283548 16385 net.cpp:454] conv3_1b2 <- conv3_1b1
I0119 15:36:42.283567 16385 net.cpp:411] conv3_1b2 -> conv3_1b2
I0119 15:36:42.284409 16385 net.cpp:150] Setting up conv3_1b2
I0119 15:36:42.284435 16385 net.cpp:157] Top shape: 40 96 28 28 (3010560)
I0119 15:36:42.284440 16385 net.cpp:165] Memory required for data: 634224800
I0119 15:36:42.284457 16385 layer_factory.hpp:77] Creating layer relu3_1
I0119 15:36:42.284464 16385 net.cpp:106] Creating Layer relu3_1
I0119 15:36:42.284479 16385 net.cpp:454] relu3_1 <- conv3_1b2
I0119 15:36:42.284487 16385 net.cpp:397] relu3_1 -> conv3_1b2 (in-place)
I0119 15:36:42.284693 16385 net.cpp:150] Setting up relu3_1
I0119 15:36:42.284713 16385 net.cpp:157] Top shape: 40 96 28 28 (3010560)
I0119 15:36:42.284718 16385 net.cpp:165] Memory required for data: 646267040
I0119 15:36:42.284735 16385 layer_factory.hpp:77] Creating layer conv3_1_bn
I0119 15:36:42.284742 16385 net.cpp:106] Creating Layer conv3_1_bn
I0119 15:36:42.284757 16385 net.cpp:454] conv3_1_bn <- conv3_1b2
I0119 15:36:42.284775 16385 net.cpp:411] conv3_1_bn -> conv3_1_bn
I0119 15:36:42.284976 16385 net.cpp:150] Setting up conv3_1_bn
I0119 15:36:42.284986 16385 net.cpp:157] Top shape: 40 96 28 28 (3010560)
I0119 15:36:42.285002 16385 net.cpp:165] Memory required for data: 658309280
I0119 15:36:42.285022 16385 layer_factory.hpp:77] Creating layer conv3_2a
I0119 15:36:42.285042 16385 net.cpp:106] Creating Layer conv3_2a
I0119 15:36:42.285048 16385 net.cpp:454] conv3_2a <- conv3_1_bn
I0119 15:36:42.285068 16385 net.cpp:411] conv3_2a -> conv3_2a
I0119 15:36:42.286007 16385 net.cpp:150] Setting up conv3_2a
I0119 15:36:42.286021 16385 net.cpp:157] Top shape: 40 64 28 28 (2007040)
I0119 15:36:42.286039 16385 net.cpp:165] Memory required for data: 666337440
I0119 15:36:42.286057 16385 layer_factory.hpp:77] Creating layer conv3_2b1
I0119 15:36:42.286079 16385 net.cpp:106] Creating Layer conv3_2b1
I0119 15:36:42.286099 16385 net.cpp:454] conv3_2b1 <- conv3_2a
I0119 15:36:42.286106 16385 net.cpp:411] conv3_2b1 -> conv3_2b1
I0119 15:36:42.287009 16385 net.cpp:150] Setting up conv3_2b1
I0119 15:36:42.287022 16385 net.cpp:157] Top shape: 40 64 28 28 (2007040)
I0119 15:36:42.287041 16385 net.cpp:165] Memory required for data: 674365600
I0119 15:36:42.287058 16385 layer_factory.hpp:77] Creating layer conv3_2b2
I0119 15:36:42.287070 16385 net.cpp:106] Creating Layer conv3_2b2
I0119 15:36:42.287086 16385 net.cpp:454] conv3_2b2 <- conv3_2b1
I0119 15:36:42.287104 16385 net.cpp:411] conv3_2b2 -> conv3_2b2
I0119 15:36:42.287899 16385 net.cpp:150] Setting up conv3_2b2
I0119 15:36:42.287914 16385 net.cpp:157] Top shape: 40 96 28 28 (3010560)
I0119 15:36:42.287919 16385 net.cpp:165] Memory required for data: 686407840
I0119 15:36:42.287925 16385 layer_factory.hpp:77] Creating layer relu3_2
I0119 15:36:42.287945 16385 net.cpp:106] Creating Layer relu3_2
I0119 15:36:42.287950 16385 net.cpp:454] relu3_2 <- conv3_2b2
I0119 15:36:42.287966 16385 net.cpp:397] relu3_2 -> conv3_2b2 (in-place)
I0119 15:36:42.288156 16385 net.cpp:150] Setting up relu3_2
I0119 15:36:42.288168 16385 net.cpp:157] Top shape: 40 96 28 28 (3010560)
I0119 15:36:42.288173 16385 net.cpp:165] Memory required for data: 698450080
I0119 15:36:42.288197 16385 layer_factory.hpp:77] Creating layer conv3_2_bn
I0119 15:36:42.288204 16385 net.cpp:106] Creating Layer conv3_2_bn
I0119 15:36:42.288219 16385 net.cpp:454] conv3_2_bn <- conv3_2b2
I0119 15:36:42.288240 16385 net.cpp:411] conv3_2_bn -> conv3_2_bn
I0119 15:36:42.288434 16385 net.cpp:150] Setting up conv3_2_bn
I0119 15:36:42.288442 16385 net.cpp:157] Top shape: 40 96 28 28 (3010560)
I0119 15:36:42.288457 16385 net.cpp:165] Memory required for data: 710492320
I0119 15:36:42.288465 16385 layer_factory.hpp:77] Creating layer conv3_3a
I0119 15:36:42.288475 16385 net.cpp:106] Creating Layer conv3_3a
I0119 15:36:42.288491 16385 net.cpp:454] conv3_3a <- conv3_2_bn
I0119 15:36:42.288498 16385 net.cpp:411] conv3_3a -> conv3_3a
I0119 15:36:42.289336 16385 net.cpp:150] Setting up conv3_3a
I0119 15:36:42.289350 16385 net.cpp:157] Top shape: 40 48 28 28 (1505280)
I0119 15:36:42.289369 16385 net.cpp:165] Memory required for data: 716513440
I0119 15:36:42.289391 16385 layer_factory.hpp:77] Creating layer conv3_3b1
I0119 15:36:42.289414 16385 net.cpp:106] Creating Layer conv3_3b1
I0119 15:36:42.289430 16385 net.cpp:454] conv3_3b1 <- conv3_3a
I0119 15:36:42.289448 16385 net.cpp:411] conv3_3b1 -> conv3_3b1
I0119 15:36:42.290244 16385 net.cpp:150] Setting up conv3_3b1
I0119 15:36:42.290258 16385 net.cpp:157] Top shape: 40 48 28 28 (1505280)
I0119 15:36:42.290278 16385 net.cpp:165] Memory required for data: 722534560
I0119 15:36:42.290295 16385 layer_factory.hpp:77] Creating layer conv3_3b2
I0119 15:36:42.290316 16385 net.cpp:106] Creating Layer conv3_3b2
I0119 15:36:42.290323 16385 net.cpp:454] conv3_3b2 <- conv3_3b1
I0119 15:36:42.290341 16385 net.cpp:411] conv3_3b2 -> conv3_3b2
I0119 15:36:42.291141 16385 net.cpp:150] Setting up conv3_3b2
I0119 15:36:42.291154 16385 net.cpp:157] Top shape: 40 96 28 28 (3010560)
I0119 15:36:42.291159 16385 net.cpp:165] Memory required for data: 734576800
I0119 15:36:42.291167 16385 layer_factory.hpp:77] Creating layer relu3_3
I0119 15:36:42.291184 16385 net.cpp:106] Creating Layer relu3_3
I0119 15:36:42.291189 16385 net.cpp:454] relu3_3 <- conv3_3b2
I0119 15:36:42.291208 16385 net.cpp:397] relu3_3 -> conv3_3b2 (in-place)
I0119 15:36:42.291409 16385 net.cpp:150] Setting up relu3_3
I0119 15:36:42.291421 16385 net.cpp:157] Top shape: 40 96 28 28 (3010560)
I0119 15:36:42.291426 16385 net.cpp:165] Memory required for data: 746619040
I0119 15:36:42.291431 16385 layer_factory.hpp:77] Creating layer conv3_3_bn
I0119 15:36:42.291452 16385 net.cpp:106] Creating Layer conv3_3_bn
I0119 15:36:42.291467 16385 net.cpp:454] conv3_3_bn <- conv3_3b2
I0119 15:36:42.291476 16385 net.cpp:411] conv3_3_bn -> conv3_3_bn
I0119 15:36:42.291678 16385 net.cpp:150] Setting up conv3_3_bn
I0119 15:36:42.291687 16385 net.cpp:157] Top shape: 40 96 28 28 (3010560)
I0119 15:36:42.291702 16385 net.cpp:165] Memory required for data: 758661280
I0119 15:36:42.291710 16385 layer_factory.hpp:77] Creating layer conv3_4
I0119 15:36:42.291721 16385 net.cpp:106] Creating Layer conv3_4
I0119 15:36:42.291726 16385 net.cpp:454] conv3_4 <- conv3_3_bn
I0119 15:36:42.291734 16385 net.cpp:411] conv3_4 -> conv3_4
I0119 15:36:42.292556 16385 net.cpp:150] Setting up conv3_4
I0119 15:36:42.292570 16385 net.cpp:157] Top shape: 40 144 28 28 (4515840)
I0119 15:36:42.292575 16385 net.cpp:165] Memory required for data: 776724640
I0119 15:36:42.292582 16385 layer_factory.hpp:77] Creating layer relu3_4
I0119 15:36:42.292589 16385 net.cpp:106] Creating Layer relu3_4
I0119 15:36:42.292594 16385 net.cpp:454] relu3_4 <- conv3_4
I0119 15:36:42.292603 16385 net.cpp:397] relu3_4 -> conv3_4 (in-place)
I0119 15:36:42.292825 16385 net.cpp:150] Setting up relu3_4
I0119 15:36:42.292840 16385 net.cpp:157] Top shape: 40 144 28 28 (4515840)
I0119 15:36:42.292845 16385 net.cpp:165] Memory required for data: 794788000
I0119 15:36:42.292850 16385 layer_factory.hpp:77] Creating layer conv3_4_bn
I0119 15:36:42.292857 16385 net.cpp:106] Creating Layer conv3_4_bn
I0119 15:36:42.292862 16385 net.cpp:454] conv3_4_bn <- conv3_4
I0119 15:36:42.292879 16385 net.cpp:411] conv3_4_bn -> conv3_4_bn
I0119 15:36:42.293045 16385 net.cpp:150] Setting up conv3_4_bn
I0119 15:36:42.293054 16385 net.cpp:157] Top shape: 40 144 28 28 (4515840)
I0119 15:36:42.293059 16385 net.cpp:165] Memory required for data: 812851360
I0119 15:36:42.293067 16385 layer_factory.hpp:77] Creating layer pool3
I0119 15:36:42.293076 16385 net.cpp:106] Creating Layer pool3
I0119 15:36:42.293082 16385 net.cpp:454] pool3 <- conv3_4_bn
I0119 15:36:42.293089 16385 net.cpp:411] pool3 -> pool3
I0119 15:36:42.293251 16385 net.cpp:150] Setting up pool3
I0119 15:36:42.293262 16385 net.cpp:157] Top shape: 40 144 14 14 (1128960)
I0119 15:36:42.293267 16385 net.cpp:165] Memory required for data: 817367200
I0119 15:36:42.293272 16385 layer_factory.hpp:77] Creating layer conv4_1a
I0119 15:36:42.293282 16385 net.cpp:106] Creating Layer conv4_1a
I0119 15:36:42.293288 16385 net.cpp:454] conv4_1a <- pool3
I0119 15:36:42.293297 16385 net.cpp:411] conv4_1a -> conv4_1a
I0119 15:36:42.294324 16385 net.cpp:150] Setting up conv4_1a
I0119 15:36:42.294338 16385 net.cpp:157] Top shape: 40 110 14 14 (862400)
I0119 15:36:42.294343 16385 net.cpp:165] Memory required for data: 820816800
I0119 15:36:42.294351 16385 layer_factory.hpp:77] Creating layer conv4_1b1
I0119 15:36:42.294363 16385 net.cpp:106] Creating Layer conv4_1b1
I0119 15:36:42.294369 16385 net.cpp:454] conv4_1b1 <- conv4_1a
I0119 15:36:42.294376 16385 net.cpp:411] conv4_1b1 -> conv4_1b1
I0119 15:36:42.295430 16385 net.cpp:150] Setting up conv4_1b1
I0119 15:36:42.295444 16385 net.cpp:157] Top shape: 40 110 14 14 (862400)
I0119 15:36:42.295450 16385 net.cpp:165] Memory required for data: 824266400
I0119 15:36:42.295457 16385 layer_factory.hpp:77] Creating layer conv4_1b2
I0119 15:36:42.295469 16385 net.cpp:106] Creating Layer conv4_1b2
I0119 15:36:42.295476 16385 net.cpp:454] conv4_1b2 <- conv4_1b1
I0119 15:36:42.295485 16385 net.cpp:411] conv4_1b2 -> conv4_1b2
I0119 15:36:42.296356 16385 net.cpp:150] Setting up conv4_1b2
I0119 15:36:42.296372 16385 net.cpp:157] Top shape: 40 144 14 14 (1128960)
I0119 15:36:42.296377 16385 net.cpp:165] Memory required for data: 828782240
I0119 15:36:42.296385 16385 layer_factory.hpp:77] Creating layer relu4_1
I0119 15:36:42.296393 16385 net.cpp:106] Creating Layer relu4_1
I0119 15:36:42.296399 16385 net.cpp:454] relu4_1 <- conv4_1b2
I0119 15:36:42.296406 16385 net.cpp:397] relu4_1 -> conv4_1b2 (in-place)
I0119 15:36:42.296540 16385 net.cpp:150] Setting up relu4_1
I0119 15:36:42.296551 16385 net.cpp:157] Top shape: 40 144 14 14 (1128960)
I0119 15:36:42.296556 16385 net.cpp:165] Memory required for data: 833298080
I0119 15:36:42.296561 16385 layer_factory.hpp:77] Creating layer conv4_1_bn
I0119 15:36:42.296569 16385 net.cpp:106] Creating Layer conv4_1_bn
I0119 15:36:42.296574 16385 net.cpp:454] conv4_1_bn <- conv4_1b2
I0119 15:36:42.296581 16385 net.cpp:411] conv4_1_bn -> conv4_1_bn
I0119 15:36:42.296747 16385 net.cpp:150] Setting up conv4_1_bn
I0119 15:36:42.296756 16385 net.cpp:157] Top shape: 40 144 14 14 (1128960)
I0119 15:36:42.296761 16385 net.cpp:165] Memory required for data: 837813920
I0119 15:36:42.296769 16385 layer_factory.hpp:77] Creating layer conv4_2
I0119 15:36:42.296782 16385 net.cpp:106] Creating Layer conv4_2
I0119 15:36:42.296788 16385 net.cpp:454] conv4_2 <- conv4_1_bn
I0119 15:36:42.296795 16385 net.cpp:411] conv4_2 -> conv4_2
I0119 15:36:42.298880 16385 net.cpp:150] Setting up conv4_2
I0119 15:36:42.298895 16385 net.cpp:157] Top shape: 40 144 14 14 (1128960)
I0119 15:36:42.298900 16385 net.cpp:165] Memory required for data: 842329760
I0119 15:36:42.298908 16385 layer_factory.hpp:77] Creating layer relu4_2
I0119 15:36:42.298915 16385 net.cpp:106] Creating Layer relu4_2
I0119 15:36:42.298920 16385 net.cpp:454] relu4_2 <- conv4_2
I0119 15:36:42.298928 16385 net.cpp:397] relu4_2 -> conv4_2 (in-place)
I0119 15:36:42.299067 16385 net.cpp:150] Setting up relu4_2
I0119 15:36:42.299077 16385 net.cpp:157] Top shape: 40 144 14 14 (1128960)
I0119 15:36:42.299082 16385 net.cpp:165] Memory required for data: 846845600
I0119 15:36:42.299095 16385 layer_factory.hpp:77] Creating layer conv4_2_bn
I0119 15:36:42.299103 16385 net.cpp:106] Creating Layer conv4_2_bn
I0119 15:36:42.299108 16385 net.cpp:454] conv4_2_bn <- conv4_2
I0119 15:36:42.299115 16385 net.cpp:411] conv4_2_bn -> conv4_2_bn
I0119 15:36:42.299281 16385 net.cpp:150] Setting up conv4_2_bn
I0119 15:36:42.299291 16385 net.cpp:157] Top shape: 40 144 14 14 (1128960)
I0119 15:36:42.299296 16385 net.cpp:165] Memory required for data: 851361440
I0119 15:36:42.299305 16385 layer_factory.hpp:77] Creating layer conv4_3
I0119 15:36:42.299316 16385 net.cpp:106] Creating Layer conv4_3
I0119 15:36:42.299322 16385 net.cpp:454] conv4_3 <- conv4_2_bn
I0119 15:36:42.299335 16385 net.cpp:411] conv4_3 -> conv4_3
I0119 15:36:42.301419 16385 net.cpp:150] Setting up conv4_3
I0119 15:36:42.301434 16385 net.cpp:157] Top shape: 40 144 14 14 (1128960)
I0119 15:36:42.301440 16385 net.cpp:165] Memory required for data: 855877280
I0119 15:36:42.301447 16385 layer_factory.hpp:77] Creating layer relu4_3
I0119 15:36:42.301455 16385 net.cpp:106] Creating Layer relu4_3
I0119 15:36:42.301461 16385 net.cpp:454] relu4_3 <- conv4_3
I0119 15:36:42.301468 16385 net.cpp:397] relu4_3 -> conv4_3 (in-place)
I0119 15:36:42.301687 16385 net.cpp:150] Setting up relu4_3
I0119 15:36:42.301700 16385 net.cpp:157] Top shape: 40 144 14 14 (1128960)
I0119 15:36:42.301705 16385 net.cpp:165] Memory required for data: 860393120
I0119 15:36:42.301710 16385 layer_factory.hpp:77] Creating layer conv4_3_bn
I0119 15:36:42.301718 16385 net.cpp:106] Creating Layer conv4_3_bn
I0119 15:36:42.301724 16385 net.cpp:454] conv4_3_bn <- conv4_3
I0119 15:36:42.301731 16385 net.cpp:411] conv4_3_bn -> conv4_3_bn
I0119 15:36:42.301900 16385 net.cpp:150] Setting up conv4_3_bn
I0119 15:36:42.301909 16385 net.cpp:157] Top shape: 40 144 14 14 (1128960)
I0119 15:36:42.301914 16385 net.cpp:165] Memory required for data: 864908960
I0119 15:36:42.301930 16385 layer_factory.hpp:77] Creating layer conv5_1
I0119 15:36:42.301945 16385 net.cpp:106] Creating Layer conv5_1
I0119 15:36:42.301952 16385 net.cpp:454] conv5_1 <- conv4_3_bn
I0119 15:36:42.301959 16385 net.cpp:411] conv5_1 -> conv5_1
I0119 15:36:42.304929 16385 net.cpp:150] Setting up conv5_1
I0119 15:36:42.304944 16385 net.cpp:157] Top shape: 40 256 14 14 (2007040)
I0119 15:36:42.304949 16385 net.cpp:165] Memory required for data: 872937120
I0119 15:36:42.304957 16385 layer_factory.hpp:77] Creating layer relu5_1
I0119 15:36:42.304965 16385 net.cpp:106] Creating Layer relu5_1
I0119 15:36:42.304970 16385 net.cpp:454] relu5_1 <- conv5_1
I0119 15:36:42.304977 16385 net.cpp:397] relu5_1 -> conv5_1 (in-place)
I0119 15:36:42.305114 16385 net.cpp:150] Setting up relu5_1
I0119 15:36:42.305126 16385 net.cpp:157] Top shape: 40 256 14 14 (2007040)
I0119 15:36:42.305130 16385 net.cpp:165] Memory required for data: 880965280
I0119 15:36:42.305135 16385 layer_factory.hpp:77] Creating layer conv5_1_bn
I0119 15:36:42.305143 16385 net.cpp:106] Creating Layer conv5_1_bn
I0119 15:36:42.305150 16385 net.cpp:454] conv5_1_bn <- conv5_1
I0119 15:36:42.305156 16385 net.cpp:411] conv5_1_bn -> conv5_1_bn
I0119 15:36:42.305323 16385 net.cpp:150] Setting up conv5_1_bn
I0119 15:36:42.305332 16385 net.cpp:157] Top shape: 40 256 14 14 (2007040)
I0119 15:36:42.305337 16385 net.cpp:165] Memory required for data: 888993440
I0119 15:36:42.305346 16385 layer_factory.hpp:77] Creating layer pool5_1
I0119 15:36:42.305353 16385 net.cpp:106] Creating Layer pool5_1
I0119 15:36:42.305358 16385 net.cpp:454] pool5_1 <- conv5_1_bn
I0119 15:36:42.305364 16385 net.cpp:411] pool5_1 -> pool5_1
I0119 15:36:42.305614 16385 net.cpp:150] Setting up pool5_1
I0119 15:36:42.305629 16385 net.cpp:157] Top shape: 40 256 13 13 (1730560)
I0119 15:36:42.305634 16385 net.cpp:165] Memory required for data: 895915680
I0119 15:36:42.305639 16385 layer_factory.hpp:77] Creating layer conv5_2
I0119 15:36:42.305649 16385 net.cpp:106] Creating Layer conv5_2
I0119 15:36:42.305655 16385 net.cpp:454] conv5_2 <- pool5_1
I0119 15:36:42.305665 16385 net.cpp:411] conv5_2 -> conv5_2
I0119 15:36:42.307220 16385 net.cpp:150] Setting up conv5_2
I0119 15:36:42.307236 16385 net.cpp:157] Top shape: 40 384 13 13 (2595840)
I0119 15:36:42.307241 16385 net.cpp:165] Memory required for data: 906299040
I0119 15:36:42.307248 16385 layer_factory.hpp:77] Creating layer relu5_2
I0119 15:36:42.307257 16385 net.cpp:106] Creating Layer relu5_2
I0119 15:36:42.307262 16385 net.cpp:454] relu5_2 <- conv5_2
I0119 15:36:42.307270 16385 net.cpp:397] relu5_2 -> conv5_2 (in-place)
I0119 15:36:42.307500 16385 net.cpp:150] Setting up relu5_2
I0119 15:36:42.307514 16385 net.cpp:157] Top shape: 40 384 13 13 (2595840)
I0119 15:36:42.307519 16385 net.cpp:165] Memory required for data: 916682400
I0119 15:36:42.307524 16385 layer_factory.hpp:77] Creating layer conv5_2_bn
I0119 15:36:42.307533 16385 net.cpp:106] Creating Layer conv5_2_bn
I0119 15:36:42.307538 16385 net.cpp:454] conv5_2_bn <- conv5_2
I0119 15:36:42.307546 16385 net.cpp:411] conv5_2_bn -> conv5_2_bn
I0119 15:36:42.307713 16385 net.cpp:150] Setting up conv5_2_bn
I0119 15:36:42.307723 16385 net.cpp:157] Top shape: 40 384 13 13 (2595840)
I0119 15:36:42.307728 16385 net.cpp:165] Memory required for data: 927065760
I0119 15:36:42.307735 16385 layer_factory.hpp:77] Creating layer pool5_2
I0119 15:36:42.307744 16385 net.cpp:106] Creating Layer pool5_2
I0119 15:36:42.307749 16385 net.cpp:454] pool5_2 <- conv5_2_bn
I0119 15:36:42.307754 16385 net.cpp:411] pool5_2 -> pool5_2
I0119 15:36:42.308006 16385 net.cpp:150] Setting up pool5_2
I0119 15:36:42.308018 16385 net.cpp:157] Top shape: 40 384 12 12 (2211840)
I0119 15:36:42.308023 16385 net.cpp:165] Memory required for data: 935913120
I0119 15:36:42.308028 16385 layer_factory.hpp:77] Creating layer conv5_3
I0119 15:36:42.308039 16385 net.cpp:106] Creating Layer conv5_3
I0119 15:36:42.308046 16385 net.cpp:454] conv5_3 <- pool5_2
I0119 15:36:42.308055 16385 net.cpp:411] conv5_3 -> conv5_3
I0119 15:36:42.310174 16385 net.cpp:150] Setting up conv5_3
I0119 15:36:42.310189 16385 net.cpp:157] Top shape: 40 512 12 12 (2949120)
I0119 15:36:42.310207 16385 net.cpp:165] Memory required for data: 947709600
I0119 15:36:42.310225 16385 layer_factory.hpp:77] Creating layer relu5_3
I0119 15:36:42.310233 16385 net.cpp:106] Creating Layer relu5_3
I0119 15:36:42.310250 16385 net.cpp:454] relu5_3 <- conv5_3
I0119 15:36:42.310269 16385 net.cpp:397] relu5_3 -> conv5_3 (in-place)
I0119 15:36:42.310514 16385 net.cpp:150] Setting up relu5_3
I0119 15:36:42.310528 16385 net.cpp:157] Top shape: 40 512 12 12 (2949120)
I0119 15:36:42.310533 16385 net.cpp:165] Memory required for data: 959506080
I0119 15:36:42.310537 16385 layer_factory.hpp:77] Creating layer conv5_3_bn
I0119 15:36:42.310561 16385 net.cpp:106] Creating Layer conv5_3_bn
I0119 15:36:42.310577 16385 net.cpp:454] conv5_3_bn <- conv5_3
I0119 15:36:42.310595 16385 net.cpp:411] conv5_3_bn -> conv5_3_bn
I0119 15:36:42.310803 16385 net.cpp:150] Setting up conv5_3_bn
I0119 15:36:42.310812 16385 net.cpp:157] Top shape: 40 512 12 12 (2949120)
I0119 15:36:42.310817 16385 net.cpp:165] Memory required for data: 971302560
I0119 15:36:42.310824 16385 layer_factory.hpp:77] Creating layer pool5_3
I0119 15:36:42.310844 16385 net.cpp:106] Creating Layer pool5_3
I0119 15:36:42.310860 16385 net.cpp:454] pool5_3 <- conv5_3_bn
I0119 15:36:42.310866 16385 net.cpp:411] pool5_3 -> pool5_3
I0119 15:36:42.311075 16385 net.cpp:150] Setting up pool5_3
I0119 15:36:42.311086 16385 net.cpp:157] Top shape: 40 512 6 6 (737280)
I0119 15:36:42.311105 16385 net.cpp:165] Memory required for data: 974251680
I0119 15:36:42.311108 16385 layer_factory.hpp:77] Creating layer fc6
I0119 15:36:42.311128 16385 net.cpp:106] Creating Layer fc6
I0119 15:36:42.311144 16385 net.cpp:454] fc6 <- pool5_3
I0119 15:36:42.311167 16385 net.cpp:411] fc6 -> fc6
I0119 15:36:42.549072 16385 net.cpp:150] Setting up fc6
I0119 15:36:42.549105 16385 net.cpp:157] Top shape: 40 2048 (81920)
I0119 15:36:42.549111 16385 net.cpp:165] Memory required for data: 974579360
I0119 15:36:42.549121 16385 layer_factory.hpp:77] Creating layer relu6
I0119 15:36:42.549171 16385 net.cpp:106] Creating Layer relu6
I0119 15:36:42.549178 16385 net.cpp:454] relu6 <- fc6
I0119 15:36:42.549196 16385 net.cpp:397] relu6 -> fc6 (in-place)
I0119 15:36:42.549587 16385 net.cpp:150] Setting up relu6
I0119 15:36:42.549600 16385 net.cpp:157] Top shape: 40 2048 (81920)
I0119 15:36:42.549605 16385 net.cpp:165] Memory required for data: 974907040
I0119 15:36:42.549610 16385 layer_factory.hpp:77] Creating layer fc6_bn
I0119 15:36:42.549630 16385 net.cpp:106] Creating Layer fc6_bn
I0119 15:36:42.549635 16385 net.cpp:454] fc6_bn <- fc6
I0119 15:36:42.549651 16385 net.cpp:411] fc6_bn -> fc6_bn
I0119 15:36:42.549885 16385 net.cpp:150] Setting up fc6_bn
I0119 15:36:42.549895 16385 net.cpp:157] Top shape: 40 2048 (81920)
I0119 15:36:42.549899 16385 net.cpp:165] Memory required for data: 975234720
I0119 15:36:42.549907 16385 layer_factory.hpp:77] Creating layer fc7
I0119 15:36:42.549926 16385 net.cpp:106] Creating Layer fc7
I0119 15:36:42.549932 16385 net.cpp:454] fc7 <- fc6_bn
I0119 15:36:42.549948 16385 net.cpp:411] fc7 -> fc7
I0119 15:36:42.576709 16385 net.cpp:150] Setting up fc7
I0119 15:36:42.576745 16385 net.cpp:157] Top shape: 40 2048 (81920)
I0119 15:36:42.576750 16385 net.cpp:165] Memory required for data: 975562400
I0119 15:36:42.576761 16385 layer_factory.hpp:77] Creating layer relu7
I0119 15:36:42.576781 16385 net.cpp:106] Creating Layer relu7
I0119 15:36:42.576787 16385 net.cpp:454] relu7 <- fc7
I0119 15:36:42.576807 16385 net.cpp:397] relu7 -> fc7 (in-place)
I0119 15:36:42.577056 16385 net.cpp:150] Setting up relu7
I0119 15:36:42.577069 16385 net.cpp:157] Top shape: 40 2048 (81920)
I0119 15:36:42.577074 16385 net.cpp:165] Memory required for data: 975890080
I0119 15:36:42.577078 16385 layer_factory.hpp:77] Creating layer fc7_bn
I0119 15:36:42.577095 16385 net.cpp:106] Creating Layer fc7_bn
I0119 15:36:42.577100 16385 net.cpp:454] fc7_bn <- fc7
I0119 15:36:42.577106 16385 net.cpp:411] fc7_bn -> fc7_bn
I0119 15:36:42.577348 16385 net.cpp:150] Setting up fc7_bn
I0119 15:36:42.577356 16385 net.cpp:157] Top shape: 40 2048 (81920)
I0119 15:36:42.577361 16385 net.cpp:165] Memory required for data: 976217760
I0119 15:36:42.577369 16385 layer_factory.hpp:77] Creating layer fc8
I0119 15:36:42.577389 16385 net.cpp:106] Creating Layer fc8
I0119 15:36:42.577394 16385 net.cpp:454] fc8 <- fc7_bn
I0119 15:36:42.577412 16385 net.cpp:411] fc8 -> fc8
I0119 15:36:42.590435 16385 net.cpp:150] Setting up fc8
I0119 15:36:42.590466 16385 net.cpp:157] Top shape: 40 1000 (40000)
I0119 15:36:42.590471 16385 net.cpp:165] Memory required for data: 976377760
I0119 15:36:42.590481 16385 layer_factory.hpp:77] Creating layer loss
I0119 15:36:42.590502 16385 net.cpp:106] Creating Layer loss
I0119 15:36:42.590509 16385 net.cpp:454] loss <- fc8
I0119 15:36:42.590526 16385 net.cpp:454] loss <- label
I0119 15:36:42.590533 16385 net.cpp:411] loss -> loss
I0119 15:36:42.590556 16385 layer_factory.hpp:77] Creating layer loss
…
I0119 15:36:42.593174 16385 net.cpp:322] The NetState phase (1) differed from the phase (0) specified by a rule in layer data
I0119 15:36:42.593633 16385 net.cpp:49] Initializing net from parameters: 
name: "PVA-Net"
state {
  phase: TEST
}
layer {
  name: "data"
  type: "Data"
  top: "data"
  top: "label"
  include {
    phase: TEST
  }
  transform_param {
    mirror: true
    crop_size: 224
    mean_value: 104
    mean_value: 117
    mean_value: 123
  }
  data_param {
    source: "data/imagenet/ilsvrc12_val_lmdb"
    batch_size: 32
    backend: LMDB
  }
}
layer {
  name: "conv1_1a"
  type: "Convolution"
  bottom: "data"
  top: "conv1_1a"
  param {
    lr_mult: 0
    decay_mult: 0
  }
  param {
    lr_mult: 0
    decay_mult: 0
  }
  convolution_param {
    num_output: 11
    weight_filler {
      type: "xavier"
      std: 0.1
    }
    bias_filler {
      type: "constant"
      value: 0.1
    }
    pad_h: 3
    pad_w: 0
    kernel_h: 7
    kernel_w: 1
    stride_h: 2
    stride_w: 1
  }
}
layer {
  name: "conv1_1b1"
  type: "Convolution"
  bottom: "conv1_1a"
  top: "conv1_1b1"
  param {
    lr_mult: 0
    decay_mult: 0
  }
  param {
    lr_mult: 0
    decay_mult: 0
  }
  convolution_param {
    num_output: 11
    weight_filler {
      type: "xavier"
      std: 0.1
    }
    bias_filler {
      type: "constant"
      value: 0.1
    }
    pad_h: 0
    pad_w: 3
    kernel_h: 1
    kernel_w: 7
    stride_h: 1
    stride_w: 2
  }
}
layer {
  name: "conv1_1b2"
  type: "Convolution"
  bottom: "conv1_1b1"
  top: "conv1_1b2"
  param {
    lr_mult: 0
    decay_mult: 0
  }
  param {
    lr_mult: 0
    decay_mult: 0
  }
  convolution_param {
    num_output: 64
    pad: 0
    kernel_size: 1
    stride: 1
    weight_filler {
      type: "xavier"
      std: 0.1
    }
    bias_filler {
      type: "constant"
      value: 0.1
    }
  }
}
layer {
  name: "relu1_1"
  type: "ReLU"
  bottom: "conv1_1b2"
  top: "conv1_1b2"
}
layer {
  name: "conv1_1_bn"
  type: "BatchNorm"
  bottom: "conv1_1b2"
  top: "conv1_1_bn"
  param {
    lr_mult: 0
    decay_mult: 0
  }
  param {
    lr_mult: 0
    decay_mult: 0
  }
  param {
    lr_mult: 0
    decay_mult: 0
  }
}
layer {
  name: "pool1"
  type: "Pooling"
  bottom: "conv1_1_bn"
  top: "pool1_1"
  pooling_param {
    pool: MAX
    kernel_size: 3
    stride: 2
  }
}
layer {
  name: "conv2_1"
  type: "Convolution"
  bottom: "pool1_1"
  top: "conv2_1"
  param {
    lr_mult: 0
    decay_mult: 0
  }
  param {
    lr_mult: 0
    decay_mult: 0
  }
  convolution_param {
    num_output: 64
    pad: 0
    kernel_size: 1
    stride: 1
    weight_filler {
      type: "xavier"
      std: 0.1
    }
    bias_filler {
      type: "constant"
      value: 0.1
    }
  }
}
layer {
  name: "relu2_1"
  type: "ReLU"
  bottom: "conv2_1"
  top: "conv2_1"
}
layer {
  name: "conv2_1_bn"
  type: "BatchNorm"
  bottom: "conv2_1"
  top: "conv2_1_bn"
  param {
    lr_mult: 0
    decay_mult: 0
  }
  param {
    lr_mult: 0
    decay_mult: 0
  }
  param {
    lr_mult: 0
    decay_mult: 0
  }
}
layer {
  name: "conv3_1a"
  type: "Convolution"
  bottom: "conv2_1_bn"
  top: "conv3_1a"
  param {
    lr_mult: 0
    decay_mult: 0
  }
  param {
    lr_mult: 0
    decay_mult: 0
  }
  convolution_param {
    num_output: 48
    weight_filler {
      type: "xavier"
    }
    bias_filler {
      type: "constant"
      value: 0.1
    }
    pad_h: 2
    pad_w: 0
    kernel_h: 5
    kernel_w: 1
    stride_h: 2
    stride_w: 1
  }
}
layer {
  name: "conv3_1b1"
  type: "Convolution"
  bottom: "conv3_1a"
  top: "conv3_1b1"
  param {
    lr_mult: 0
    decay_mult: 0
  }
  param {
    lr_mult: 0
    decay_mult: 0
  }
  convolution_param {
    num_output: 48
    weight_filler {
      type: "xavier"
    }
    bias_filler {
      type: "constant"
      value: 0.1
    }
    pad_h: 0
    pad_w: 2
    kernel_h: 1
    kernel_w: 5
    stride_h: 1
    stride_w: 2
  }
}
layer {
  name: "conv3_1b2"
  type: "Convolution"
  bottom: "conv3_1b1"
  top: "conv3_1b2"
  param {
    lr_mult: 0
    decay_mult: 0
  }
  param {
    lr_mult: 0
    decay_mult: 0
  }
  convolution_param {
    num_output: 96
    pad: 0
    kernel_size: 1
    stride: 1
    weight_filler {
      type: "xavier"
    }
    bias_filler {
      type: "constant"
      value: 0.1
    }
  }
}
layer {
  name: "relu3_1"
  type: "ReLU"
  bottom: "conv3_1b2"
  top: "conv3_1b2"
}
layer {
  name: "conv3_1_bn"
  type: "BatchNorm"
  bottom: "conv3_1b2"
  top: "conv3_1_bn"
  param {
    lr_mult: 0
    decay_mult: 0
  }
  param {
    lr_mult: 0
    decay_mult: 0
  }
  param {
    lr_mult: 0
    decay_mult: 0
  }
}
layer {
  name: "conv3_2a"
  type: "Convolution"
  bottom: "conv3_1_bn"
  top: "conv3_2a"
  param {
    lr_mult: 0
    decay_mult: 0
  }
  param {
    lr_mult: 0
    decay_mult: 0
  }
  convolution_param {
    num_output: 64
    weight_filler {
      type: "xavier"
    }
    bias_filler {
      type: "constant"
      value: 0.1
    }
    pad_h: 1
    pad_w: 0
    kernel_h: 3
    kernel_w: 1
    stride_h: 1
    stride_w: 1
  }
}
layer {
  name: "conv3_2b1"
  type: "Convolution"
  bottom: "conv3_2a"
  top: "conv3_2b1"
  param {
    lr_mult: 0
    decay_mult: 0
  }
  param {
    lr_mult: 0
    decay_mult: 0
  }
  convolution_param {
    num_output: 64
    weight_filler {
      type: "xavier"
    }
    bias_filler {
      type: "constant"
      value: 0.1
    }
    pad_h: 0
    pad_w: 1
    kernel_h: 1
    kernel_w: 3
    stride_h: 1
    stride_w: 1
  }
}
layer {
  name: "conv3_2b2"
  type: "Convolution"
  bottom: "conv3_2b1"
  top: "conv3_2b2"
  param {
    lr_mult: 0
    decay_mult: 0
  }
  param {
    lr_mult: 0
    decay_mult: 0
  }
  convolution_param {
    num_output: 96
    pad: 0
    kernel_size: 1
    stride: 1
    weight_filler {
      type: "xavier"
    }
    bias_filler {
      type: "constant"
      value: 0.1
    }
  }
}
layer {
  name: "relu3_2"
  type: "ReLU"
  bottom: "conv3_2b2"
  top: "conv3_2b2"
}
layer {
  name: "conv3_2_bn"
  type: "BatchNorm"
  bottom: "conv3_2b2"
  top: "conv3_2_bn"
  param {
    lr_mult: 0
    decay_mult: 0
  }
  param {
    lr_mult: 0
    decay_mult: 0
  }
  param {
    lr_mult: 0
    decay_mult: 0
  }
}
layer {
  name: "conv3_3a"
  type: "Convolution"
  bottom: "conv3_2_bn"
  top: "conv3_3a"
  param {
    lr_mult: 0
    decay_mult: 0
  }
  param {
    lr_mult: 0
    decay_mult: 0
  }
  convolution_param {
    num_output: 48
    weight_filler {
      type: "xavier"
    }
    bias_filler {
      type: "constant"
      value: 0.1
    }
    pad_h: 1
    pad_w: 0
    kernel_h: 3
    kernel_w: 1
    stride_h: 1
    stride_w: 1
  }
}
layer {
  name: "conv3_3b1"
  type: "Convolution"
  bottom: "conv3_3a"
  top: "conv3_3b1"
  param {
    lr_mult: 0
    decay_mult: 0
  }
  param {
    lr_mult: 0
    decay_mult: 0
  }
  convolution_param {
    num_output: 48
    weight_filler {
      type: "xavier"
    }
    bias_filler {
      type: "constant"
      value: 0.1
    }
    pad_h: 0
    pad_w: 1
    kernel_h: 1
    kernel_w: 3
    stride_h: 1
    stride_w: 1
  }
}
layer {
  name: "conv3_3b2"
  type: "Convolution"
  bottom: "conv3_3b1"
  top: "conv3_3b2"
  param {
    lr_mult: 0
    decay_mult: 0
  }
  param {
    lr_mult: 0
    decay_mult: 0
  }
  convolution_param {
    num_output: 96
    pad: 0
    kernel_size: 1
    stride: 1
    weight_filler {
      type: "xavier"
    }
    bias_filler {
      type: "constant"
      value: 0.1
    }
  }
}
layer {
  name: "relu3_3"
  type: "ReLU"
  bottom: "conv3_3b2"
  top: "conv3_3b2"
}
layer {
  name: "conv3_3_bn"
  type: "BatchNorm"
  bottom: "conv3_3b2"
  top: "conv3_3_bn"
  param {
    lr_mult: 0
    decay_mult: 0
  }
  param {
    lr_mult: 0
    decay_mult: 0
  }
  param {
    lr_mult: 0
    decay_mult: 0
  }
}
layer {
  name: "conv3_4"
  type: "Convolution"
  bottom: "conv3_3_bn"
  top: "conv3_4"
  param {
    lr_mult: 0
    decay_mult: 0
  }
  param {
    lr_mult: 0
    decay_mult: 0
  }
  convolution_param {
    num_output: 144
    pad: 0
    kernel_size: 1
    stride: 1
    weight_filler {
      type: "xavier"
    }
    bias_filler {
      type: "constant"
      value: 0.1
    }
  }
}
layer {
  name: "relu3_4"
  type: "ReLU"
  bottom: "conv3_4"
  top: "conv3_4"
}
layer {
  name: "conv3_4_bn"
  type: "BatchNorm"
  bottom: "conv3_4"
  top: "conv3_4_bn"
  param {
    lr_mult: 0
    decay_mult: 0
  }
  param {
    lr_mult: 0
    decay_mult: 0
  }
  param {
    lr_mult: 0
    decay_mult: 0
  }
}
layer {
  name: "pool3"
  type: "Pooling"
  bottom: "conv3_4_bn"
  top: "pool3"
  pooling_param {
    pool: MAX
    kernel_size: 2
    stride: 2
  }
}
layer {
  name: "conv4_1a"
  type: "Convolution"
  bottom: "pool3"
  top: "conv4_1a"
  param {
    lr_mult: 0
    decay_mult: 0
  }
  param {
    lr_mult: 0
    decay_mult: 0
  }
  convolution_param {
    num_output: 110
    weight_filler {
      type: "xavier"
    }
    bias_filler {
      type: "constant"
      value: 0.1
    }
    pad_h: 1
    pad_w: 0
    kernel_h: 3
    kernel_w: 1
    stride_h: 1
    stride_w: 1
  }
}
layer {
  name: "conv4_1b1"
  type: "Convolution"
  bottom: "conv4_1a"
  top: "conv4_1b1"
  param {
    lr_mult: 0
    decay_mult: 0
  }
  param {
    lr_mult: 0
    decay_mult: 0
  }
  convolution_param {
    num_output: 110
    weight_filler {
      type: "xavier"
    }
    bias_filler {
      type: "constant"
      value: 0.1
    }
    pad_h: 0
    pad_w: 1
    kernel_h: 1
    kernel_w: 3
    stride_h: 1
    stride_w: 1
  }
}
layer {
  name: "conv4_1b2"
  type: "Convolution"
  bottom: "conv4_1b1"
  top: "conv4_1b2"
  param {
    lr_mult: 0
    decay_mult: 0
  }
  param {
    lr_mult: 0
    decay_mult: 0
  }
  convolution_param {
    num_output: 144
    pad: 0
    kernel_size: 1
    stride: 1
    weight_filler {
      type: "xavier"
    }
    bias_filler {
      type: "constant"
      value: 0.1
    }
  }
}
layer {
  name: "relu4_1"
  type: "ReLU"
  bottom: "conv4_1b2"
  top: "conv4_1b2"
}
layer {
  name: "conv4_1_bn"
  type: "BatchNorm"
  bottom: "conv4_1b2"
  top: "conv4_1_bn"
}
layer {
  name: "conv4_2"
  type: "Convolution"
  bottom: "conv4_1_bn"
  top: "conv4_2"
  param {
    lr_mult: 1
    decay_mult: 1
  }
  param {
    lr_mult: 2
    decay_mult: 0
  }
  convolution_param {
    num_output: 144
    pad: 1
    kernel_size: 3
    stride: 1
    weight_filler {
      type: "xavier"
    }
    bias_filler {
      type: "constant"
      value: 0.1
    }
  }
}
layer {
  name: "relu4_2"
  type: "ReLU"
  bottom: "conv4_2"
  top: "conv4_2"
}
layer {
  name: "conv4_2_bn"
  type: "BatchNorm"
  bottom: "conv4_2"
  top: "conv4_2_bn"
}
layer {
  name: "conv4_3"
  type: "Convolution"
  bottom: "conv4_2_bn"
  top: "conv4_3"
  param {
    lr_mult: 1
    decay_mult: 1
  }
  param {
    lr_mult: 2
    decay_mult: 0
  }
  convolution_param {
    num_output: 144
    pad: 1
    kernel_size: 3
    stride: 1
    weight_filler {
      type: "xavier"
    }
    bias_filler {
      type: "constant"
      value: 0.1
    }
  }
}
layer {
  name: "relu4_3"
  type: "ReLU"
  bottom: "conv4_3"
  top: "conv4_3"
}
layer {
  name: "conv4_3_bn"
  type: "BatchNorm"
  bottom: "conv4_3"
  top: "conv4_3_bn"
}
layer {
  name: "conv5_1"
  type: "Convolution"
  bottom: "conv4_3_bn"
  top: "conv5_1"
  param {
    lr_mult: 1
    decay_mult: 1
  }
  param {
    lr_mult: 2
    decay_mult: 0
  }
  convolution_param {
    num_output: 256
    pad: 1
    kernel_size: 3
    stride: 1
    weight_filler {
      type: "xavier"
    }
    bias_filler {
      type: "constant"
      value: 0.1
    }
  }
}
layer {
  name: "relu5_1"
  type: "ReLU"
  bottom: "conv5_1"
  top: "conv5_1"
}
layer {
  name: "conv5_1_bn"
  type: "BatchNorm"
  bottom: "conv5_1"
  top: "conv5_1_bn"
}
layer {
  name: "pool5_1"
  type: "Pooling"
  bottom: "conv5_1_bn"
  top: "pool5_1"
  pooling_param {
    pool: MAX
    kernel_size: 2
    stride: 1
  }
}
layer {
  name: "conv5_2"
  type: "Convolution"
  bottom: "pool5_1"
  top: "conv5_2"
  param {
    lr_mult: 1
    decay_mult: 1
  }
  param {
    lr_mult: 2
    decay_mult: 0
  }
  convolution_param {
    num_output: 384
    pad: 0
    kernel_size: 1
    stride: 1
    weight_filler {
      type: "xavier"
    }
    bias_filler {
      type: "constant"
      value: 0.1
    }
  }
}
layer {
  name: "relu5_2"
  type: "ReLU"
  bottom: "conv5_2"
  top: "conv5_2"
}
layer {
  name: "conv5_2_bn"
  type: "BatchNorm"
  bottom: "conv5_2"
  top: "conv5_2_bn"
}
layer {
  name: "pool5_2"
  type: "Pooling"
  bottom: "conv5_2_bn"
  top: "pool5_2"
  pooling_param {
    pool: MAX
    kernel_size: 2
    stride: 1
  }
}
layer {
  name: "conv5_3"
  type: "Convolution"
  bottom: "pool5_2"
  top: "conv5_3"
  param {
    lr_mult: 1
    decay_mult: 1
  }
  param {
    lr_mult: 2
    decay_mult: 0
  }
  convolution_param {
    num_output: 512
    pad: 0
    kernel_size: 1
    stride: 1
    weight_filler {
      type: "xavier"
    }
    bias_filler {
      type: "constant"
      value: 0.1
    }
  }
}
layer {
  name: "relu5_3"
  type: "ReLU"
  bottom: "conv5_3"
  top: "conv5_3"
}
layer {
  name: "conv5_3_bn"
  type: "BatchNorm"
  bottom: "conv5_3"
  top: "conv5_3_bn"
}
layer {
  name: "pool5_3"
  type: "Pooling"
  bottom: "conv5_3_bn"
  top: "pool5_3"
  pooling_param {
    pool: MAX
    kernel_size: 2
    stride: 2
  }
}
layer {
  name: "fc6"
  type: "InnerProduct"
  bottom: "pool5_3"
  top: "fc6"
  param {
    lr_mult: 1
    decay_mult: 1
  }
  param {
    lr_mult: 2
    decay_mult: 0
  }
  inner_product_param {
    num_output: 2048
    weight_filler {
      type: "xavier"
      std: 0.1
    }
    bias_filler {
      type: "constant"
      value: 0.1
    }
  }
}
layer {
  name: "relu6"
  type: "ReLU"
  bottom: "fc6"
  top: "fc6"
}
layer {
  name: "fc6_bn"
  type: "BatchNorm"
  bottom: "fc6"
  top: "fc6_bn"
}
layer {
  name: "fc7"
  type: "InnerProduct"
  bottom: "fc6_bn"
  top: "fc7"
  param {
    lr_mult: 1
    decay_mult: 1
  }
  param {
    lr_mult: 2
    decay_mult: 0
  }
  inner_product_param {
    num_output: 2048
    weight_filler {
      type: "xavier"
      std: 0.1
    }
    bias_filler {
      type: "constant"
      value: 0.1
    }
  }
}
layer {
  name: "relu7"
  type: "ReLU"
  bottom: "fc7"
  top: "fc7"
}
layer {
  name: "fc7_bn"
  type: "BatchNorm"
  bottom: "fc7"
  top: "fc7_bn"
}
layer {
  name: "fc8"
  type: "InnerProduct"
  bottom: "fc7_bn"
  top: "fc8"
  param {
    lr_mult: 1
    decay_mult: 1
  }
  param {
    lr_mult: 2
    decay_mult: 0
  }
  inner_product_param {
    num_output: 1000
    weight_filler {
      type: "xavier"
      std: 0.1
    }
    bias_filler {
      type: "constant"
      value: 0.1
    }
  }
}
layer {
  name: "accuracy"
  type: "Accuracy"
  bottom: "fc8"
  bottom: "label"
  top: "accuracy"
  include {
    phase: TEST
  }
  accuracy_param {
    top_k: 1
  }
}
layer {
  name: "loss"
  type: "SoftmaxWithLoss"
  bottom: "fc8"
  bottom: "label"
  top: "loss"
}
I0119 15:36:42.593834 16385 layer_factory.hpp:77] Creating layer data
I0119 15:36:42.593895 16385 net.cpp:106] Creating Layer data
I0119 15:36:42.593902 16385 net.cpp:411] data -> data
I0119 15:36:42.593910 16385 net.cpp:411] data -> label
I0119 15:36:42.594570 16397 db_lmdb.cpp:38] Opened lmdb data/imagenet/ilsvrc12_val_lmdb
I0119 15:36:42.594825 16385 data_layer.cpp:41] output data size: 32,3,224,224
I0119 15:36:42.620462 16385 net.cpp:150] Setting up data
I0119 15:36:42.620512 16385 net.cpp:157] Top shape: 32 3 224 224 (4816896)
I0119 15:36:42.620519 16385 net.cpp:157] Top shape: 32 (32)
I0119 15:36:42.620524 16385 net.cpp:165] Memory required for data: 19267712
I0119 15:36:42.620542 16385 layer_factory.hpp:77] Creating layer label_data_1_split
I0119 15:36:42.620569 16385 net.cpp:106] Creating Layer label_data_1_split
I0119 15:36:42.620576 16385 net.cpp:454] label_data_1_split <- label
I0119 15:36:42.620584 16385 net.cpp:411] label_data_1_split -> label_data_1_split_0
I0119 15:36:42.620605 16385 net.cpp:411] label_data_1_split -> label_data_1_split_1
I0119 15:36:42.620841 16385 net.cpp:150] Setting up label_data_1_split
I0119 15:36:42.620851 16385 net.cpp:157] Top shape: 32 (32)
I0119 15:36:42.620867 16385 net.cpp:157] Top shape: 32 (32)
I0119 15:36:42.620872 16385 net.cpp:165] Memory required for data: 19267968
I0119 15:36:42.620908 16385 layer_factory.hpp:77] Creating layer conv1_1a
I0119 15:36:42.620923 16385 net.cpp:106] Creating Layer conv1_1a
I0119 15:36:42.620939 16385 net.cpp:454] conv1_1a <- data
I0119 15:36:42.620956 16385 net.cpp:411] conv1_1a -> conv1_1a
I0119 15:36:42.623601 16385 net.cpp:150] Setting up conv1_1a
I0119 15:36:42.623627 16385 net.cpp:157] Top shape: 32 11 112 224 (8830976)
I0119 15:36:42.623633 16385 net.cpp:165] Memory required for data: 54591872
I0119 15:36:42.623654 16385 layer_factory.hpp:77] Creating layer conv1_1b1
I0119 15:36:42.623677 16385 net.cpp:106] Creating Layer conv1_1b1
I0119 15:36:42.623692 16385 net.cpp:454] conv1_1b1 <- conv1_1a
I0119 15:36:42.623699 16385 net.cpp:411] conv1_1b1 -> conv1_1b1
I0119 15:36:42.624590 16385 net.cpp:150] Setting up conv1_1b1
I0119 15:36:42.624616 16385 net.cpp:157] Top shape: 32 11 112 112 (4415488)
I0119 15:36:42.624622 16385 net.cpp:165] Memory required for data: 72253824
I0119 15:36:42.624641 16385 layer_factory.hpp:77] Creating layer conv1_1b2
I0119 15:36:42.624665 16385 net.cpp:106] Creating Layer conv1_1b2
I0119 15:36:42.624670 16385 net.cpp:454] conv1_1b2 <- conv1_1b1
I0119 15:36:42.624689 16385 net.cpp:411] conv1_1b2 -> conv1_1b2
I0119 15:36:42.625519 16385 net.cpp:150] Setting up conv1_1b2
I0119 15:36:42.625543 16385 net.cpp:157] Top shape: 32 64 112 112 (25690112)
I0119 15:36:42.625548 16385 net.cpp:165] Memory required for data: 175014272
I0119 15:36:42.625568 16385 layer_factory.hpp:77] Creating layer relu1_1
I0119 15:36:42.625576 16385 net.cpp:106] Creating Layer relu1_1
I0119 15:36:42.625591 16385 net.cpp:454] relu1_1 <- conv1_1b2
I0119 15:36:42.625612 16385 net.cpp:397] relu1_1 -> conv1_1b2 (in-place)
I0119 15:36:42.625898 16385 net.cpp:150] Setting up relu1_1
I0119 15:36:42.625911 16385 net.cpp:157] Top shape: 32 64 112 112 (25690112)
I0119 15:36:42.625926 16385 net.cpp:165] Memory required for data: 277774720
I0119 15:36:42.625931 16385 layer_factory.hpp:77] Creating layer conv1_1_bn
I0119 15:36:42.625948 16385 net.cpp:106] Creating Layer conv1_1_bn
I0119 15:36:42.625953 16385 net.cpp:454] conv1_1_bn <- conv1_1b2
I0119 15:36:42.625963 16385 net.cpp:411] conv1_1_bn -> conv1_1_bn
I0119 15:36:42.626173 16385 net.cpp:150] Setting up conv1_1_bn
I0119 15:36:42.626181 16385 net.cpp:157] Top shape: 32 64 112 112 (25690112)
I0119 15:36:42.626196 16385 net.cpp:165] Memory required for data: 380535168
I0119 15:36:42.626209 16385 layer_factory.hpp:77] Creating layer pool1
I0119 15:36:42.626226 16385 net.cpp:106] Creating Layer pool1
I0119 15:36:42.626243 16385 net.cpp:454] pool1 <- conv1_1_bn
I0119 15:36:42.626263 16385 net.cpp:411] pool1 -> pool1_1
I0119 15:36:42.626544 16385 net.cpp:150] Setting up pool1
I0119 15:36:42.626569 16385 net.cpp:157] Top shape: 32 64 56 56 (6422528)
I0119 15:36:42.626574 16385 net.cpp:165] Memory required for data: 406225280
I0119 15:36:42.626579 16385 layer_factory.hpp:77] Creating layer conv2_1
I0119 15:36:42.626591 16385 net.cpp:106] Creating Layer conv2_1
I0119 15:36:42.626598 16385 net.cpp:454] conv2_1 <- pool1_1
I0119 15:36:42.626607 16385 net.cpp:411] conv2_1 -> conv2_1
I0119 15:36:42.627426 16385 net.cpp:150] Setting up conv2_1
I0119 15:36:42.627450 16385 net.cpp:157] Top shape: 32 64 56 56 (6422528)
I0119 15:36:42.627456 16385 net.cpp:165] Memory required for data: 431915392
I0119 15:36:42.627475 16385 layer_factory.hpp:77] Creating layer relu2_1
I0119 15:36:42.627493 16385 net.cpp:106] Creating Layer relu2_1
I0119 15:36:42.627501 16385 net.cpp:454] relu2_1 <- conv2_1
I0119 15:36:42.627517 16385 net.cpp:397] relu2_1 -> conv2_1 (in-place)
I0119 15:36:42.627816 16385 net.cpp:150] Setting up relu2_1
I0119 15:36:42.627840 16385 net.cpp:157] Top shape: 32 64 56 56 (6422528)
I0119 15:36:42.627845 16385 net.cpp:165] Memory required for data: 457605504
I0119 15:36:42.627861 16385 layer_factory.hpp:77] Creating layer conv2_1_bn
I0119 15:36:42.627881 16385 net.cpp:106] Creating Layer conv2_1_bn
I0119 15:36:42.627885 16385 net.cpp:454] conv2_1_bn <- conv2_1
I0119 15:36:42.627905 16385 net.cpp:411] conv2_1_bn -> conv2_1_bn
I0119 15:36:42.628144 16385 net.cpp:150] Setting up conv2_1_bn
I0119 15:36:42.628154 16385 net.cpp:157] Top shape: 32 64 56 56 (6422528)
I0119 15:36:42.628168 16385 net.cpp:165] Memory required for data: 483295616
I0119 15:36:42.628177 16385 layer_factory.hpp:77] Creating layer conv3_1a
I0119 15:36:42.628190 16385 net.cpp:106] Creating Layer conv3_1a
I0119 15:36:42.628196 16385 net.cpp:454] conv3_1a <- conv2_1_bn
I0119 15:36:42.628203 16385 net.cpp:411] conv3_1a -> conv3_1a
I0119 15:36:42.629123 16385 net.cpp:150] Setting up conv3_1a
I0119 15:36:42.629139 16385 net.cpp:157] Top shape: 32 48 28 56 (2408448)
I0119 15:36:42.629145 16385 net.cpp:165] Memory required for data: 492929408
I0119 15:36:42.629153 16385 layer_factory.hpp:77] Creating layer conv3_1b1
I0119 15:36:42.629164 16385 net.cpp:106] Creating Layer conv3_1b1
I0119 15:36:42.629171 16385 net.cpp:454] conv3_1b1 <- conv3_1a
I0119 15:36:42.629189 16385 net.cpp:411] conv3_1b1 -> conv3_1b1
I0119 15:36:42.630030 16385 net.cpp:150] Setting up conv3_1b1
I0119 15:36:42.630044 16385 net.cpp:157] Top shape: 32 48 28 28 (1204224)
I0119 15:36:42.630059 16385 net.cpp:165] Memory required for data: 497746304
I0119 15:36:42.630071 16385 layer_factory.hpp:77] Creating layer conv3_1b2
I0119 15:36:42.630084 16385 net.cpp:106] Creating Layer conv3_1b2
I0119 15:36:42.630089 16385 net.cpp:454] conv3_1b2 <- conv3_1b1
I0119 15:36:42.630097 16385 net.cpp:411] conv3_1b2 -> conv3_1b2
I0119 15:36:42.630961 16385 net.cpp:150] Setting up conv3_1b2
I0119 15:36:42.630976 16385 net.cpp:157] Top shape: 32 96 28 28 (2408448)
I0119 15:36:42.630991 16385 net.cpp:165] Memory required for data: 507380096
I0119 15:36:42.630998 16385 layer_factory.hpp:77] Creating layer relu3_1
I0119 15:36:42.631007 16385 net.cpp:106] Creating Layer relu3_1
I0119 15:36:42.631013 16385 net.cpp:454] relu3_1 <- conv3_1b2
I0119 15:36:42.631021 16385 net.cpp:397] relu3_1 -> conv3_1b2 (in-place)
I0119 15:36:42.631259 16385 net.cpp:150] Setting up relu3_1
I0119 15:36:42.631273 16385 net.cpp:157] Top shape: 32 96 28 28 (2408448)
I0119 15:36:42.631279 16385 net.cpp:165] Memory required for data: 517013888
I0119 15:36:42.631284 16385 layer_factory.hpp:77] Creating layer conv3_1_bn
I0119 15:36:42.631294 16385 net.cpp:106] Creating Layer conv3_1_bn
I0119 15:36:42.631301 16385 net.cpp:454] conv3_1_bn <- conv3_1b2
I0119 15:36:42.631309 16385 net.cpp:411] conv3_1_bn -> conv3_1_bn
I0119 15:36:42.631520 16385 net.cpp:150] Setting up conv3_1_bn
I0119 15:36:42.631531 16385 net.cpp:157] Top shape: 32 96 28 28 (2408448)
I0119 15:36:42.631546 16385 net.cpp:165] Memory required for data: 526647680
I0119 15:36:42.631553 16385 layer_factory.hpp:77] Creating layer conv3_2a
I0119 15:36:42.631567 16385 net.cpp:106] Creating Layer conv3_2a
I0119 15:36:42.631572 16385 net.cpp:454] conv3_2a <- conv3_1_bn
I0119 15:36:42.631580 16385 net.cpp:411] conv3_2a -> conv3_2a
I0119 15:36:42.632623 16385 net.cpp:150] Setting up conv3_2a
I0119 15:36:42.632638 16385 net.cpp:157] Top shape: 32 64 28 28 (1605632)
I0119 15:36:42.632644 16385 net.cpp:165] Memory required for data: 533070208
I0119 15:36:42.632661 16385 layer_factory.hpp:77] Creating layer conv3_2b1
I0119 15:36:42.632686 16385 net.cpp:106] Creating Layer conv3_2b1
I0119 15:36:42.632705 16385 net.cpp:454] conv3_2b1 <- conv3_2a
I0119 15:36:42.632714 16385 net.cpp:411] conv3_2b1 -> conv3_2b1
I0119 15:36:42.633630 16385 net.cpp:150] Setting up conv3_2b1
I0119 15:36:42.633646 16385 net.cpp:157] Top shape: 32 64 28 28 (1605632)
I0119 15:36:42.633663 16385 net.cpp:165] Memory required for data: 539492736
I0119 15:36:42.633680 16385 layer_factory.hpp:77] Creating layer conv3_2b2
I0119 15:36:42.633705 16385 net.cpp:106] Creating Layer conv3_2b2
I0119 15:36:42.633712 16385 net.cpp:454] conv3_2b2 <- conv3_2b1
I0119 15:36:42.633730 16385 net.cpp:411] conv3_2b2 -> conv3_2b2
I0119 15:36:42.634649 16385 net.cpp:150] Setting up conv3_2b2
I0119 15:36:42.634675 16385 net.cpp:157] Top shape: 32 96 28 28 (2408448)
I0119 15:36:42.634680 16385 net.cpp:165] Memory required for data: 549126528
I0119 15:36:42.634719 16385 layer_factory.hpp:77] Creating layer relu3_2
I0119 15:36:42.634739 16385 net.cpp:106] Creating Layer relu3_2
I0119 15:36:42.634745 16385 net.cpp:454] relu3_2 <- conv3_2b2
I0119 15:36:42.634762 16385 net.cpp:397] relu3_2 -> conv3_2b2 (in-place)
I0119 15:36:42.635030 16385 net.cpp:150] Setting up relu3_2
I0119 15:36:42.635045 16385 net.cpp:157] Top shape: 32 96 28 28 (2408448)
I0119 15:36:42.635051 16385 net.cpp:165] Memory required for data: 558760320
I0119 15:36:42.635056 16385 layer_factory.hpp:77] Creating layer conv3_2_bn
I0119 15:36:42.635064 16385 net.cpp:106] Creating Layer conv3_2_bn
I0119 15:36:42.635069 16385 net.cpp:454] conv3_2_bn <- conv3_2b2
I0119 15:36:42.635089 16385 net.cpp:411] conv3_2_bn -> conv3_2_bn
I0119 15:36:42.635303 16385 net.cpp:150] Setting up conv3_2_bn
I0119 15:36:42.635313 16385 net.cpp:157] Top shape: 32 96 28 28 (2408448)
I0119 15:36:42.635332 16385 net.cpp:165] Memory required for data: 568394112
I0119 15:36:42.635342 16385 layer_factory.hpp:77] Creating layer conv3_3a
I0119 15:36:42.635373 16385 net.cpp:106] Creating Layer conv3_3a
I0119 15:36:42.635378 16385 net.cpp:454] conv3_3a <- conv3_2_bn
I0119 15:36:42.635401 16385 net.cpp:411] conv3_3a -> conv3_3a
I0119 15:36:42.636366 16385 net.cpp:150] Setting up conv3_3a
I0119 15:36:42.636390 16385 net.cpp:157] Top shape: 32 48 28 28 (1204224)
I0119 15:36:42.636396 16385 net.cpp:165] Memory required for data: 573211008
I0119 15:36:42.636433 16385 layer_factory.hpp:77] Creating layer conv3_3b1
I0119 15:36:42.636453 16385 net.cpp:106] Creating Layer conv3_3b1
I0119 15:36:42.636472 16385 net.cpp:454] conv3_3b1 <- conv3_3a
I0119 15:36:42.636482 16385 net.cpp:411] conv3_3b1 -> conv3_3b1
I0119 15:36:42.637290 16385 net.cpp:150] Setting up conv3_3b1
I0119 15:36:42.637315 16385 net.cpp:157] Top shape: 32 48 28 28 (1204224)
I0119 15:36:42.637320 16385 net.cpp:165] Memory required for data: 578027904
I0119 15:36:42.637341 16385 layer_factory.hpp:77] Creating layer conv3_3b2
I0119 15:36:42.637362 16385 net.cpp:106] Creating Layer conv3_3b2
I0119 15:36:42.637377 16385 net.cpp:454] conv3_3b2 <- conv3_3b1
I0119 15:36:42.637395 16385 net.cpp:411] conv3_3b2 -> conv3_3b2
I0119 15:36:42.638286 16385 net.cpp:150] Setting up conv3_3b2
I0119 15:36:42.638300 16385 net.cpp:157] Top shape: 32 96 28 28 (2408448)
I0119 15:36:42.638315 16385 net.cpp:165] Memory required for data: 587661696
I0119 15:36:42.638324 16385 layer_factory.hpp:77] Creating layer relu3_3
I0119 15:36:42.638330 16385 net.cpp:106] Creating Layer relu3_3
I0119 15:36:42.638336 16385 net.cpp:454] relu3_3 <- conv3_3b2
I0119 15:36:42.638342 16385 net.cpp:397] relu3_3 -> conv3_3b2 (in-place)
I0119 15:36:42.638628 16385 net.cpp:150] Setting up relu3_3
I0119 15:36:42.638641 16385 net.cpp:157] Top shape: 32 96 28 28 (2408448)
I0119 15:36:42.638659 16385 net.cpp:165] Memory required for data: 597295488
I0119 15:36:42.638664 16385 layer_factory.hpp:77] Creating layer conv3_3_bn
I0119 15:36:42.638682 16385 net.cpp:106] Creating Layer conv3_3_bn
I0119 15:36:42.638697 16385 net.cpp:454] conv3_3_bn <- conv3_3b2
I0119 15:36:42.638715 16385 net.cpp:411] conv3_3_bn -> conv3_3_bn
I0119 15:36:42.638933 16385 net.cpp:150] Setting up conv3_3_bn
I0119 15:36:42.638943 16385 net.cpp:157] Top shape: 32 96 28 28 (2408448)
I0119 15:36:42.638957 16385 net.cpp:165] Memory required for data: 606929280
I0119 15:36:42.638965 16385 layer_factory.hpp:77] Creating layer conv3_4
I0119 15:36:42.638975 16385 net.cpp:106] Creating Layer conv3_4
I0119 15:36:42.638983 16385 net.cpp:454] conv3_4 <- conv3_3_bn
I0119 15:36:42.638990 16385 net.cpp:411] conv3_4 -> conv3_4
I0119 15:36:42.640220 16385 net.cpp:150] Setting up conv3_4
I0119 15:36:42.640236 16385 net.cpp:157] Top shape: 32 144 28 28 (3612672)
I0119 15:36:42.640254 16385 net.cpp:165] Memory required for data: 621379968
I0119 15:36:42.640272 16385 layer_factory.hpp:77] Creating layer relu3_4
I0119 15:36:42.640280 16385 net.cpp:106] Creating Layer relu3_4
I0119 15:36:42.640285 16385 net.cpp:454] relu3_4 <- conv3_4
I0119 15:36:42.640303 16385 net.cpp:397] relu3_4 -> conv3_4 (in-place)
I0119 15:36:42.640620 16385 net.cpp:150] Setting up relu3_4
I0119 15:36:42.640635 16385 net.cpp:157] Top shape: 32 144 28 28 (3612672)
I0119 15:36:42.640650 16385 net.cpp:165] Memory required for data: 635830656
I0119 15:36:42.640655 16385 layer_factory.hpp:77] Creating layer conv3_4_bn
I0119 15:36:42.640666 16385 net.cpp:106] Creating Layer conv3_4_bn
I0119 15:36:42.640671 16385 net.cpp:454] conv3_4_bn <- conv3_4
I0119 15:36:42.640678 16385 net.cpp:411] conv3_4_bn -> conv3_4_bn
I0119 15:36:42.640890 16385 net.cpp:150] Setting up conv3_4_bn
I0119 15:36:42.640899 16385 net.cpp:157] Top shape: 32 144 28 28 (3612672)
I0119 15:36:42.640914 16385 net.cpp:165] Memory required for data: 650281344
I0119 15:36:42.640923 16385 layer_factory.hpp:77] Creating layer pool3
I0119 15:36:42.640931 16385 net.cpp:106] Creating Layer pool3
I0119 15:36:42.640938 16385 net.cpp:454] pool3 <- conv3_4_bn
I0119 15:36:42.640944 16385 net.cpp:411] pool3 -> pool3
I0119 15:36:42.641227 16385 net.cpp:150] Setting up pool3
I0119 15:36:42.641242 16385 net.cpp:157] Top shape: 32 144 14 14 (903168)
I0119 15:36:42.641257 16385 net.cpp:165] Memory required for data: 653894016
I0119 15:36:42.641261 16385 layer_factory.hpp:77] Creating layer conv4_1a
I0119 15:36:42.641273 16385 net.cpp:106] Creating Layer conv4_1a
I0119 15:36:42.641279 16385 net.cpp:454] conv4_1a <- pool3
I0119 15:36:42.641288 16385 net.cpp:411] conv4_1a -> conv4_1a
I0119 15:36:42.643983 16385 net.cpp:150] Setting up conv4_1a
I0119 15:36:42.644001 16385 net.cpp:157] Top shape: 32 110 14 14 (689920)
I0119 15:36:42.644006 16385 net.cpp:165] Memory required for data: 656653696
I0119 15:36:42.644014 16385 layer_factory.hpp:77] Creating layer conv4_1b1
I0119 15:36:42.644037 16385 net.cpp:106] Creating Layer conv4_1b1
I0119 15:36:42.644052 16385 net.cpp:454] conv4_1b1 <- conv4_1a
I0119 15:36:42.644070 16385 net.cpp:411] conv4_1b1 -> conv4_1b1
I0119 15:36:42.645483 16385 net.cpp:150] Setting up conv4_1b1
I0119 15:36:42.645500 16385 net.cpp:157] Top shape: 32 110 14 14 (689920)
I0119 15:36:42.645506 16385 net.cpp:165] Memory required for data: 659413376
I0119 15:36:42.645514 16385 layer_factory.hpp:77] Creating layer conv4_1b2
I0119 15:36:42.645556 16385 net.cpp:106] Creating Layer conv4_1b2
I0119 15:36:42.645572 16385 net.cpp:454] conv4_1b2 <- conv4_1b1
I0119 15:36:42.645581 16385 net.cpp:411] conv4_1b2 -> conv4_1b2
I0119 15:36:42.646666 16385 net.cpp:150] Setting up conv4_1b2
I0119 15:36:42.646682 16385 net.cpp:157] Top shape: 32 144 14 14 (903168)
I0119 15:36:42.646697 16385 net.cpp:165] Memory required for data: 663026048
I0119 15:36:42.646705 16385 layer_factory.hpp:77] Creating layer relu4_1
I0119 15:36:42.646713 16385 net.cpp:106] Creating Layer relu4_1
I0119 15:36:42.646718 16385 net.cpp:454] relu4_1 <- conv4_1b2
I0119 15:36:42.646725 16385 net.cpp:397] relu4_1 -> conv4_1b2 (in-place)
I0119 15:36:42.646878 16385 net.cpp:150] Setting up relu4_1
I0119 15:36:42.646888 16385 net.cpp:157] Top shape: 32 144 14 14 (903168)
I0119 15:36:42.646903 16385 net.cpp:165] Memory required for data: 666638720
I0119 15:36:42.646908 16385 layer_factory.hpp:77] Creating layer conv4_1_bn
I0119 15:36:42.646915 16385 net.cpp:106] Creating Layer conv4_1_bn
I0119 15:36:42.646921 16385 net.cpp:454] conv4_1_bn <- conv4_1b2
I0119 15:36:42.646927 16385 net.cpp:411] conv4_1_bn -> conv4_1_bn
I0119 15:36:42.647140 16385 net.cpp:150] Setting up conv4_1_bn
I0119 15:36:42.647150 16385 net.cpp:157] Top shape: 32 144 14 14 (903168)
I0119 15:36:42.647163 16385 net.cpp:165] Memory required for data: 670251392
I0119 15:36:42.647172 16385 layer_factory.hpp:77] Creating layer conv4_2
I0119 15:36:42.647193 16385 net.cpp:106] Creating Layer conv4_2
I0119 15:36:42.647199 16385 net.cpp:454] conv4_2 <- conv4_1_bn
I0119 15:36:42.647218 16385 net.cpp:411] conv4_2 -> conv4_2
I0119 15:36:42.649477 16385 net.cpp:150] Setting up conv4_2
I0119 15:36:42.649497 16385 net.cpp:157] Top shape: 32 144 14 14 (903168)
I0119 15:36:42.649502 16385 net.cpp:165] Memory required for data: 673864064
I0119 15:36:42.649510 16385 layer_factory.hpp:77] Creating layer relu4_2
I0119 15:36:42.649555 16385 net.cpp:106] Creating Layer relu4_2
I0119 15:36:42.649562 16385 net.cpp:454] relu4_2 <- conv4_2
I0119 15:36:42.649585 16385 net.cpp:397] relu4_2 -> conv4_2 (in-place)
I0119 15:36:42.649847 16385 net.cpp:150] Setting up relu4_2
I0119 15:36:42.649860 16385 net.cpp:157] Top shape: 32 144 14 14 (903168)
I0119 15:36:42.649865 16385 net.cpp:165] Memory required for data: 677476736
I0119 15:36:42.649871 16385 layer_factory.hpp:77] Creating layer conv4_2_bn
I0119 15:36:42.649878 16385 net.cpp:106] Creating Layer conv4_2_bn
I0119 15:36:42.649883 16385 net.cpp:454] conv4_2_bn <- conv4_2
I0119 15:36:42.649891 16385 net.cpp:411] conv4_2_bn -> conv4_2_bn
I0119 15:36:42.650105 16385 net.cpp:150] Setting up conv4_2_bn
I0119 15:36:42.650115 16385 net.cpp:157] Top shape: 32 144 14 14 (903168)
I0119 15:36:42.650120 16385 net.cpp:165] Memory required for data: 681089408
I0119 15:36:42.650128 16385 layer_factory.hpp:77] Creating layer conv4_3
I0119 15:36:42.650140 16385 net.cpp:106] Creating Layer conv4_3
I0119 15:36:42.650146 16385 net.cpp:454] conv4_3 <- conv4_2_bn
I0119 15:36:42.650154 16385 net.cpp:411] conv4_3 -> conv4_3
I0119 15:36:42.652447 16385 net.cpp:150] Setting up conv4_3
I0119 15:36:42.652470 16385 net.cpp:157] Top shape: 32 144 14 14 (903168)
I0119 15:36:42.652477 16385 net.cpp:165] Memory required for data: 684702080
I0119 15:36:42.652484 16385 layer_factory.hpp:77] Creating layer relu4_3
I0119 15:36:42.652493 16385 net.cpp:106] Creating Layer relu4_3
I0119 15:36:42.652499 16385 net.cpp:454] relu4_3 <- conv4_3
I0119 15:36:42.652508 16385 net.cpp:397] relu4_3 -> conv4_3 (in-place)
I0119 15:36:42.652662 16385 net.cpp:150] Setting up relu4_3
I0119 15:36:42.652673 16385 net.cpp:157] Top shape: 32 144 14 14 (903168)
I0119 15:36:42.652686 16385 net.cpp:165] Memory required for data: 688314752
I0119 15:36:42.652691 16385 layer_factory.hpp:77] Creating layer conv4_3_bn
I0119 15:36:42.652699 16385 net.cpp:106] Creating Layer conv4_3_bn
I0119 15:36:42.652704 16385 net.cpp:454] conv4_3_bn <- conv4_3
I0119 15:36:42.652710 16385 net.cpp:411] conv4_3_bn -> conv4_3_bn
I0119 15:36:42.652927 16385 net.cpp:150] Setting up conv4_3_bn
I0119 15:36:42.652937 16385 net.cpp:157] Top shape: 32 144 14 14 (903168)
I0119 15:36:42.652951 16385 net.cpp:165] Memory required for data: 691927424
I0119 15:36:42.652971 16385 layer_factory.hpp:77] Creating layer conv5_1
I0119 15:36:42.652983 16385 net.cpp:106] Creating Layer conv5_1
I0119 15:36:42.652992 16385 net.cpp:454] conv5_1 <- conv4_3_bn
I0119 15:36:42.652999 16385 net.cpp:411] conv5_1 -> conv5_1
I0119 15:36:42.656218 16385 net.cpp:150] Setting up conv5_1
I0119 15:36:42.656252 16385 net.cpp:157] Top shape: 32 256 14 14 (1605632)
I0119 15:36:42.656258 16385 net.cpp:165] Memory required for data: 698349952
I0119 15:36:42.656266 16385 layer_factory.hpp:77] Creating layer relu5_1
I0119 15:36:42.656286 16385 net.cpp:106] Creating Layer relu5_1
I0119 15:36:42.656301 16385 net.cpp:454] relu5_1 <- conv5_1
I0119 15:36:42.656309 16385 net.cpp:397] relu5_1 -> conv5_1 (in-place)
I0119 15:36:42.656523 16385 net.cpp:150] Setting up relu5_1
I0119 15:36:42.656534 16385 net.cpp:157] Top shape: 32 256 14 14 (1605632)
I0119 15:36:42.656549 16385 net.cpp:165] Memory required for data: 704772480
I0119 15:36:42.656554 16385 layer_factory.hpp:77] Creating layer conv5_1_bn
I0119 15:36:42.656574 16385 net.cpp:106] Creating Layer conv5_1_bn
I0119 15:36:42.656580 16385 net.cpp:454] conv5_1_bn <- conv5_1
I0119 15:36:42.656587 16385 net.cpp:411] conv5_1_bn -> conv5_1_bn
I0119 15:36:42.656805 16385 net.cpp:150] Setting up conv5_1_bn
I0119 15:36:42.656816 16385 net.cpp:157] Top shape: 32 256 14 14 (1605632)
I0119 15:36:42.656829 16385 net.cpp:165] Memory required for data: 711195008
I0119 15:36:42.656839 16385 layer_factory.hpp:77] Creating layer pool5_1
I0119 15:36:42.656857 16385 net.cpp:106] Creating Layer pool5_1
I0119 15:36:42.656872 16385 net.cpp:454] pool5_1 <- conv5_1_bn
I0119 15:36:42.656878 16385 net.cpp:411] pool5_1 -> pool5_1
I0119 15:36:42.657243 16385 net.cpp:150] Setting up pool5_1
I0119 15:36:42.657277 16385 net.cpp:157] Top shape: 32 256 13 13 (1384448)
I0119 15:36:42.657284 16385 net.cpp:165] Memory required for data: 716732800
I0119 15:36:42.657300 16385 layer_factory.hpp:77] Creating layer conv5_2
I0119 15:36:42.657323 16385 net.cpp:106] Creating Layer conv5_2
I0119 15:36:42.657341 16385 net.cpp:454] conv5_2 <- pool5_1
I0119 15:36:42.657363 16385 net.cpp:411] conv5_2 -> conv5_2
I0119 15:36:42.658879 16385 net.cpp:150] Setting up conv5_2
I0119 15:36:42.658896 16385 net.cpp:157] Top shape: 32 384 13 13 (2076672)
I0119 15:36:42.658911 16385 net.cpp:165] Memory required for data: 725039488
I0119 15:36:42.658920 16385 layer_factory.hpp:77] Creating layer relu5_2
I0119 15:36:42.658927 16385 net.cpp:106] Creating Layer relu5_2
I0119 15:36:42.658932 16385 net.cpp:454] relu5_2 <- conv5_2
I0119 15:36:42.658939 16385 net.cpp:397] relu5_2 -> conv5_2 (in-place)
I0119 15:36:42.659098 16385 net.cpp:150] Setting up relu5_2
I0119 15:36:42.659111 16385 net.cpp:157] Top shape: 32 384 13 13 (2076672)
I0119 15:36:42.659124 16385 net.cpp:165] Memory required for data: 733346176
I0119 15:36:42.659129 16385 layer_factory.hpp:77] Creating layer conv5_2_bn
I0119 15:36:42.659137 16385 net.cpp:106] Creating Layer conv5_2_bn
I0119 15:36:42.659142 16385 net.cpp:454] conv5_2_bn <- conv5_2
I0119 15:36:42.659149 16385 net.cpp:411] conv5_2_bn -> conv5_2_bn
I0119 15:36:42.659394 16385 net.cpp:150] Setting up conv5_2_bn
I0119 15:36:42.659404 16385 net.cpp:157] Top shape: 32 384 13 13 (2076672)
I0119 15:36:42.659409 16385 net.cpp:165] Memory required for data: 741652864
I0119 15:36:42.659417 16385 layer_factory.hpp:77] Creating layer pool5_2
I0119 15:36:42.659425 16385 net.cpp:106] Creating Layer pool5_2
I0119 15:36:42.659430 16385 net.cpp:454] pool5_2 <- conv5_2_bn
I0119 15:36:42.659436 16385 net.cpp:411] pool5_2 -> pool5_2
I0119 15:36:42.659716 16385 net.cpp:150] Setting up pool5_2
I0119 15:36:42.659730 16385 net.cpp:157] Top shape: 32 384 12 12 (1769472)
I0119 15:36:42.659735 16385 net.cpp:165] Memory required for data: 748730752
I0119 15:36:42.659740 16385 layer_factory.hpp:77] Creating layer conv5_3
I0119 15:36:42.659752 16385 net.cpp:106] Creating Layer conv5_3
I0119 15:36:42.659759 16385 net.cpp:454] conv5_3 <- pool5_2
I0119 15:36:42.659767 16385 net.cpp:411] conv5_3 -> conv5_3
I0119 15:36:42.663597 16385 net.cpp:150] Setting up conv5_3
I0119 15:36:42.663615 16385 net.cpp:157] Top shape: 32 512 12 12 (2359296)
I0119 15:36:42.663621 16385 net.cpp:165] Memory required for data: 758167936
I0119 15:36:42.663628 16385 layer_factory.hpp:77] Creating layer relu5_3
I0119 15:36:42.663648 16385 net.cpp:106] Creating Layer relu5_3
I0119 15:36:42.663664 16385 net.cpp:454] relu5_3 <- conv5_3
I0119 15:36:42.663671 16385 net.cpp:397] relu5_3 -> conv5_3 (in-place)
I0119 15:36:42.663892 16385 net.cpp:150] Setting up relu5_3
I0119 15:36:42.663903 16385 net.cpp:157] Top shape: 32 512 12 12 (2359296)
I0119 15:36:42.663908 16385 net.cpp:165] Memory required for data: 767605120
I0119 15:36:42.663913 16385 layer_factory.hpp:77] Creating layer conv5_3_bn
I0119 15:36:42.663920 16385 net.cpp:106] Creating Layer conv5_3_bn
I0119 15:36:42.663936 16385 net.cpp:454] conv5_3_bn <- conv5_3
I0119 15:36:42.663952 16385 net.cpp:411] conv5_3_bn -> conv5_3_bn
I0119 15:36:42.664234 16385 net.cpp:150] Setting up conv5_3_bn
I0119 15:36:42.664244 16385 net.cpp:157] Top shape: 32 512 12 12 (2359296)
I0119 15:36:42.664259 16385 net.cpp:165] Memory required for data: 777042304
I0119 15:36:42.664268 16385 layer_factory.hpp:77] Creating layer pool5_3
I0119 15:36:42.664288 16385 net.cpp:106] Creating Layer pool5_3
I0119 15:36:42.664302 16385 net.cpp:454] pool5_3 <- conv5_3_bn
I0119 15:36:42.664309 16385 net.cpp:411] pool5_3 -> pool5_3
I0119 15:36:42.664633 16385 net.cpp:150] Setting up pool5_3
I0119 15:36:42.664647 16385 net.cpp:157] Top shape: 32 512 6 6 (589824)
I0119 15:36:42.664652 16385 net.cpp:165] Memory required for data: 779401600
I0119 15:36:42.664657 16385 layer_factory.hpp:77] Creating layer fc6
I0119 15:36:42.664666 16385 net.cpp:106] Creating Layer fc6
I0119 15:36:42.664683 16385 net.cpp:454] fc6 <- pool5_3
I0119 15:36:42.664692 16385 net.cpp:411] fc6 -> fc6
I0119 15:36:42.904296 16385 net.cpp:150] Setting up fc6
I0119 15:36:42.904340 16385 net.cpp:157] Top shape: 32 2048 (65536)
I0119 15:36:42.904346 16385 net.cpp:165] Memory required for data: 779663744
I0119 15:36:42.904367 16385 layer_factory.hpp:77] Creating layer relu6
I0119 15:36:42.904392 16385 net.cpp:106] Creating Layer relu6
I0119 15:36:42.904398 16385 net.cpp:454] relu6 <- fc6
I0119 15:36:42.904408 16385 net.cpp:397] relu6 -> fc6 (in-place)
I0119 15:36:42.904705 16385 net.cpp:150] Setting up relu6
I0119 15:36:42.904727 16385 net.cpp:157] Top shape: 32 2048 (65536)
I0119 15:36:42.904733 16385 net.cpp:165] Memory required for data: 779925888
I0119 15:36:42.904738 16385 layer_factory.hpp:77] Creating layer fc6_bn
I0119 15:36:42.904755 16385 net.cpp:106] Creating Layer fc6_bn
I0119 15:36:42.904760 16385 net.cpp:454] fc6_bn <- fc6
I0119 15:36:42.904769 16385 net.cpp:411] fc6_bn -> fc6_bn
I0119 15:36:42.905035 16385 net.cpp:150] Setting up fc6_bn
I0119 15:36:42.905045 16385 net.cpp:157] Top shape: 32 2048 (65536)
I0119 15:36:42.905061 16385 net.cpp:165] Memory required for data: 780188032
I0119 15:36:42.905069 16385 layer_factory.hpp:77] Creating layer fc7
I0119 15:36:42.905081 16385 net.cpp:106] Creating Layer fc7
I0119 15:36:42.905086 16385 net.cpp:454] fc7 <- fc6_bn
I0119 15:36:42.905093 16385 net.cpp:411] fc7 -> fc7
I0119 15:36:42.931886 16385 net.cpp:150] Setting up fc7
I0119 15:36:42.931920 16385 net.cpp:157] Top shape: 32 2048 (65536)
I0119 15:36:42.931926 16385 net.cpp:165] Memory required for data: 780450176
I0119 15:36:42.931937 16385 layer_factory.hpp:77] Creating layer relu7
I0119 15:36:42.931958 16385 net.cpp:106] Creating Layer relu7
I0119 15:36:42.931975 16385 net.cpp:454] relu7 <- fc7
I0119 15:36:42.931983 16385 net.cpp:397] relu7 -> fc7 (in-place)
I0119 15:36:42.932442 16385 net.cpp:150] Setting up relu7
I0119 15:36:42.932459 16385 net.cpp:157] Top shape: 32 2048 (65536)
I0119 15:36:42.932464 16385 net.cpp:165] Memory required for data: 780712320
I0119 15:36:42.932471 16385 layer_factory.hpp:77] Creating layer fc7_bn
I0119 15:36:42.932487 16385 net.cpp:106] Creating Layer fc7_bn
I0119 15:36:42.932493 16385 net.cpp:454] fc7_bn <- fc7
I0119 15:36:42.932512 16385 net.cpp:411] fc7_bn -> fc7_bn
I0119 15:36:42.932787 16385 net.cpp:150] Setting up fc7_bn
I0119 15:36:42.932796 16385 net.cpp:157] Top shape: 32 2048 (65536)
I0119 15:36:42.932801 16385 net.cpp:165] Memory required for data: 780974464
I0119 15:36:42.932809 16385 layer_factory.hpp:77] Creating layer fc8
I0119 15:36:42.932831 16385 net.cpp:106] Creating Layer fc8
I0119 15:36:42.932837 16385 net.cpp:454] fc8 <- fc7_bn
I0119 15:36:42.932843 16385 net.cpp:411] fc8 -> fc8
I0119 15:36:42.945907 16385 net.cpp:150] Setting up fc8
I0119 15:36:42.945938 16385 net.cpp:157] Top shape: 32 1000 (32000)
I0119 15:36:42.945945 16385 net.cpp:165] Memory required for data: 781102464
I0119 15:36:42.945963 16385 layer_factory.hpp:77] Creating layer fc8_fc8_0_split
I0119 15:36:42.945973 16385 net.cpp:106] Creating Layer fc8_fc8_0_split
I0119 15:36:42.945991 16385 net.cpp:454] fc8_fc8_0_split <- fc8
I0119 15:36:42.945998 16385 net.cpp:411] fc8_fc8_0_split -> fc8_fc8_0_split_0
I0119 15:36:42.946008 16385 net.cpp:411] fc8_fc8_0_split -> fc8_fc8_0_split_1
I0119 15:36:42.946105 16385 net.cpp:150] Setting up fc8_fc8_0_split
I0119 15:36:42.946115 16385 net.cpp:157] Top shape: 32 1000 (32000)
I0119 15:36:42.946120 16385 net.cpp:157] Top shape: 32 1000 (32000)
I0119 15:36:42.946125 16385 net.cpp:165] Memory required for data: 781358464
I0119 15:36:42.946142 16385 layer_factory.hpp:77] Creating layer accuracy
I0119 15:36:42.946161 16385 net.cpp:106] Creating Layer accuracy
I0119 15:36:42.946166 16385 net.cpp:454] accuracy <- fc8_fc8_0_split_0
I0119 15:36:42.946171 16385 net.cpp:454] accuracy <- label_data_1_split_0
I0119 15:36:42.946192 16385 net.cpp:411] accuracy -> accuracy
…
